transformer_model.pth (torch, 282063 bytes, 16 tensors)

embedding.weight f4 [16, 3]
0.43665382 0.47460315 -0.1285268 0.5400127 -0.13078098 0.11798998 -0.27406874 0.33272055
0.51338977 -0.43270773 0.50656426 0.10768254 0.42172286 0.08407325 0.2710142 -0.087767
0.43838984 0.094383836 -0.27806702 0.15276663 -0.26932746 -0.059979673 -0.24058324 0.38755196
-0.46309856 -0.26499683 -0.16644701 -0.3536739 0.047361393 -0.5604446 0.51758415 -0.48509344
0.4392807 0.08813041 -0.18259907 0.3509956 0.085953645 0.4593696 0.07112 -0.18914166
0.16277914 -0.16202278 0.25174585 0.5105166 0.3374695 -0.2615109 0.34074414 0.09913346
00000000: 1791 df3e 2fff f23e 889c 03be 463e 0a3f
00000010: 73eb 05be bba4 f13d bd52 8cbe 595a aa3e
00000020: 836d 033f de8b ddbe 32ae 013f aa88 dc3d
00000030: 0fec d73e 992e ac3d 60c2 8a3e 2fbf b3bd
00000040: a274 e03e 504c c13d cd5e 8ebe db6e 1c3e
00000050: 4ae5 89be 3fad 75bd 745b 76be 366d c63e
00000060: 411b edbe aaad 87be 1671 2abe bf14 b5be
00000070: 05fe 413d 4c79 0fbf 6580 043f 2b5e f8be
00000080: 66e9 e03e b77d b43d 40fb 3abe b2b5 b33e
00000090: 7708 b03d 7e32 eb3e 5da7 913d 5aae 41be
000000a0: 93af 263e 4de9 25be d5e4 803e 37b1 023f
000000b0: cdc8 ac3e c2e4 85be 0476 ae3e 7c06 cb3d

embedding.bias f4 [16]
0.29429054 -0.35534582 -0.5794247 -0.21423909 -0.43795067 0.4792397 0.17452765 0.23119266
0.18348959 -0.0028962814 0.4495409 -0.40699247 0.040671747 -0.39563513 0.17094876 -0.19882877
00000000: 40ad 963e e3ef b5be 2d55 14bf 7e61 5bbe
00000010: 123b e0be e85e f53e 60b7 323e c5bd 6c3e
00000020: b2e4 3b3e 8acf 3dbb 3a2a e63e 5161 d0be
00000030: 6b97 263d b090 cabe 310d 2f3e c599 4bbe

transformer.layers.0.self_attn.in_proj_weight f4 [48, 16]
-0.037699938 0.14687937 -0.14170668 -0.03338653 -0.02665183 -0.07243857 -0.15524626 -0.27294615
-0.24750778 -0.163951 0.2957262 -0.14789245 -0.20561263 0.07421777 0.08438808 0.16776243
0.2327384 0.1705072 -0.30358395 0.02715522 0.18547323 -0.028299391 -0.18042918 0.29189953
-0.114522174 -0.17432545 -0.27604374 0.013676822 0.13568127 0.06777826 0.060548246 -0.23220779
-0.28594342 0.0053917468 0.27919105 0.17664537 -0.17827211 -0.0397456 -0.22571546 -0.14771141
0.055449814 0.1667302 0.25363526 -0.28111145 0.20472077 -0.21595073 0.11465672 0.25910863
0.004299581 0.27857098 -0.26088643 -0.116950646 0.17858401 -0.06670813 -0.062676385 -0.12761587
0.21105602 0.15018532 0.09811741 -0.17206554 -0.24854654 0.033117294 0.09071651 -0.14136982
-0.08567019 0.20678827 0.024390697 0.013814598 -0.075352594 -0.2772791 -0.2878939 -0.14636163
-0.15564102 0.09539342 -0.0891341 -0.11978683 0.29192707 0.106651664 0.21828088 -0.14822866
-0.12506692 0.112535834 -0.20400427 -0.20015517 -0.014788687 -0.111990884 -0.22953495 0.18161711
0.2462236 0.049670547 -0.05331108 -0.28361204 -0.11152488 0.07795063 0.14437628 -0.038707316
-0.121051595 0.17061496 -0.24384663 0.19351521 -0.118786424 0.004686296 -0.060507253 0.037121683
-0.092529 0.22263625 -0.007959962 0.23900881 0.29439208 -0.14917116 -0.22336563 0.24565384
0.23993179 -0.23378767 -0.023669213 -0.3019383 -0.25064376 0.059137583 0.081456125 0.06490567
-0.08333309 0.28248063 0.043777883 -0.18067583 -0.017334372 0.073529154 0.10722417 -0.21649842
0.11475542 -0.15642492 -0.2544225 -0.16724119 0.2952889 0.26174566 0.27418503 0.17973474
0.23130825 -0.04098296 -0.1684722 0.15298796 -0.15866043 -0.20663463 -0.09777568 0.06425601
0.15762365 -0.1189255 -0.1802109 0.041302383 -0.18047632 -0.19934604 0.15960017 -0.051434577
0.2797884 0.29785267 0.091582 0.10537633 0.0705097 0.004795134 -0.022269666 0.0042082667
0.11433753 0.28468302 -0.07935095 -0.12942976 -0.07414754 -0.14792599 0.052063495 0.22855219
0.2394307 0.14057791 -0.2253321 -0.16433161 -0.06727262 -0.056437522 0.025183111 -0.28107023
0.09529886 -0.23358093 -0.19373772 -0.25455788 0.26678607 -0.28993994 0.23097673 -0.010293037
-0.035609096 0.19151291 -0.028300047 0.19202596 0.22137722 -0.26583397 0.117815554 0.057801515
0.06583363 0.044700563 0.08375141 -0.14729604 -0.03917381 0.29091367 0.20571104 -0.011502951
-0.2879776 0.013419449 -0.2085047 0.24898806 -0.1858818 -0.022107124 -0.06795579 0.05448702
0.28812972 0.029093564 0.17733204 0.23766837 0.24718758 -0.10574186 -0.06848058 0.14756271
-0.08354832 0.143376 -0.066891804 -0.20767152 0.12463108 0.046943873 0.13651264 0.30419174
0.20904341 0.29025874 0.01638794 -0.26338524 -0.21479797 -0.19019485 -0.2698261 -0.15347509
-0.28186518 -0.2824921 -0.18296298 -0.30184877 -0.18794093 0.11675146 0.25537547 -0.09107903
-0.08906308 0.16348916 -0.15106337 -0.14477482 0.18865037 -0.26678056 0.03743884 0.2704794
0.052506804 0.08326545 -0.17832015 -0.00422433 0.01683548 0.07514861 0.11896744 0.26605377
00000000: 406b 1abd 8c67 163e 8e1b 11be 50c0 08bd
00000010: f054 dabc ac5a 94bd e0f8 1ebe 99bf 8bbe
00000020: ae72 7dbe c5e2 27be 6d69 973e 1e71 17be
00000030: 1e8c 52be 7cff 973d a8d3 ac3d eac9 2b3e
00000040: fa52 6e3e 7099 2e3e 5b6f 9bbe a074 de3c
00000050: b2ec 3d3e 20d4 e7bc 6dc2 38be db73 953e
00000060: 9a8a eabd 5f82 32be 9b55 8dbe c014 603c
00000070: 08f0 0a3e 54cf 8a3d 7001 783d e1c7 6dbe
00000080: 2d67 92be 40ad b03b 21f2 8e3e 86e2 343e
00000090: f78c 36be 48cc 22bd f421 67be a941 17be
000000a0: 581f 633d 52bb 2a3e 7bdc 813e d7ed 8fbe
000000b0: 52a2 513e 3022 5dbe 24d1 ea3d e3a9 843e
000000c0: 80e3 8c3b dba0 8e3e e892 85be d283 efbd
000000d0: bade 363e 469e 88bd 7a5c 80bd bcad 02be
000000e0: 121f 583e 2eca 193e c8f1 c83d f331 30be
000000f0: fc82 7ebe 00a6 073d 94c9 b93d 40c3 10be
00000100: da73 afbd 4ec0 533e 00cf c73c a056 623c
00000110: 7652 9abd 87f7 8dbe d466 93be d3df 15be
00000120: 5c60 1fbe a05d c33d f08b b6bd cc52 f5bd
00000130: 7777 953e 306c da3d 0685 5f3e 41c9 17be
00000140: 8b11 00be 3079 e63d 7fe6 50be 7af5 4cbe
00000150: 404c 72bc 7a5b e5bd 360b 6bbe d6f9 393e
00000160: 0a22 7c3e 5873 4b3d b85c 5abd 9935 91be
00000170: 2867 e4bd 94a4 9f3d 60d7 133e 908b 1ebd
00000180: e6e9 f7bd b0b5 2e3e eeb2 79be da28 463e
00000190: 4c46 f3bd 808f 993b 74d6 77bd e80c 183d
000001a0: d87f bdbd c2fa 633e 806a 02bc babe 743e
000001b0: 8fba 963e 53c0 18be f6b9 64be ae8c 7b3e
000001c0: aeb0 753e 0966 6fbe f0e5 c1bc a897 9abe
000001d0: 6154 80be 403a 723d 78d2 a63d 44ed 843d
000001e0: 8aaa aabd 4da1 903e 7050 333d 1603 39be
000001f0: d000 8ebc 7496 963d 5898 db3d c3b1 5dbe
00000200: e404 eb3d db2d 20be aa43 82be 4641 2bbe
00000210: 1b30 973e 8703 863e fb61 8c3e 620c 383e
00000220: 12dc 6c3e c0dd 27bd fa83 2cbe e0a8 1c3e
00000230: e177 22be 0798 53be 9e3e c8bd a898 833d
00000240: 1868 213e 368f f3bd 3589 38be b02c 293d
00000250: c9ce 38be 5e21 4cbe 3a6e 233e 10ad 52bd
00000260: 6d40 8f3e 2580 983e 588f bb3d 8ccf d73d
00000270: 6467 903d 8020 9d3b e06e b6bc 80e5 893b
00000280: cc29 ea3d f9c1 913e c082 a2bd 3c89 04be
00000290: aada 97bd e979 17be 8840 553d 9609 6a3e
000002a0: 522d 753e a8f3 0f3e 75bd 66be 8c46 28be
000002b0: 3ac6 89bd 082b 67bd d04c ce3c 70e8 8fbe
000002c0: 0c2c c33d d72f 6fbe 2e63 46be 6955 82be
000002d0: 2f98 883e 0273 94be 2a85 6c3e 20a4 28bc
000002e0: d8da 11bd f61b 443e 80d5 e7bc 74a2 443e
000002f0: b6b0 623e 641b 88be 4849 f13d 48c1 6c3d
00000300: c8d3 863d f017 373d dc85 ab3d c6d4 16be
00000310: b874 20bd a3f2 943e eaa5 523e e076 3cbc
00000320: cd71 93be 40dd 5b3c 4282 55be baf6 7e3e
00000330: cc57 3ebe 001a b5bc 682c 8bbd c82d 5f3d
00000340: bd85 933e a055 ee3c 8896 353e 565f 733e
00000350: be1e 7d3e 308f d8bd 8c3f 8cbd ae1a 173e
00000360: 621b abbd 28d1 123e 92fe 88bd d8a7 54be
00000370: 943e ff3d 3848 403d f8c9 0b3e 05bf 9b3e
00000380: 7a0f 563e cb9c 943e 0040 863c 6eda 86be
00000390: 00f4 5bbe 70c2 42be a626 8abe 9328 1dbe
000003a0: a250 90be cea2 90be a65a 3bbe ec8b 9abe
000003b0: 9673 40be 641b ef3d 93c0 823e a487 babd
000003c0: b466 b6bd b469 273e 5bb0 1abe da3f 14be
000003d0: 902d 413e 7697 88be 7859 193d 477c 8a3e
000003e0: 6011 573d 1487 aa3d 8f99 36be 406c 8abb
000003f0: 90ea 893c 84e7 993d 34a5 f33d 3338 883e

transformer.layers.0.self_attn.in_proj_bias f4 [48]
0.0 0.0 0.0 0.0 0.0 0.0 0.0 0.0
0.0 0.0 0.0 0.0 0.0 0.0 0.0 0.0
0.0 0.0 0.0 0.0 0.0 0.0 0.0 0.0
0.0 0.0 0.0 0.0 0.0 0.0 0.0 0.0
0.005558774 -0.009280615 -0.002921672 0.005950631 0.0032273303 -0.0050995694 -0.00320804 0.00470527
-1.1713011e-05 -0.008439932 0.00022122826 -0.003371656 0.003042743 -0.0024363962 0.003859968 -0.0019104457
00000000: 0000 0000 0000 0000 0000 0000 0000 0000
00000010: 0000 0000 0000 0000 0000 0000 0000 0000
00000020: 0000 0000 0000 0000 0000 0000 0000 0000
00000030: 0000 0000 0000 0000 0000 0000 0000 0000
00000040: 0000 0000 0000 0000 0000 0000 0000 0000
00000050: 0000 0000 0000 0000 0000 0000 0000 0000
00000060: 0000 0000 0000 0000 0000 0000 0000 0000
00000070: 0000 0000 0000 0000 0000 0000 0000 0000
00000080: 6026 b63b b80d 18bc 8679 3fbb 83fd c23b
00000090: 9e81 533b 4a1a a7bb fb3d 52bb aa2e 9a3b
000000a0: 0083 44b7 a447 0abc 82f9 6739 00f7 5cbb
000000b0: c268 473b f2ab 1fbb 84f7 7c3b ec67 faba

transformer.layers.0.self_attn.out_proj.weight f4 [16, 16]
0.07772475 -0.051211406 0.20689176 -0.14882301 -0.147671 -0.15002136 0.22398928 0.08343679
0.24120677 -0.20595159 -0.24675715 -0.1948089 -0.16358262 0.10073914 0.089794636 0.2099189
-0.12999447 -0.16763912 0.1300317 -0.10785121 0.15809157 -0.056528363 0.13980263 -0.19739805
-0.12385696 0.074801154 0.056141954 -0.058511823 0.15260042 0.16523698 -0.1825329 -0.14277852
0.23352101 -0.07810618 -0.09487351 -0.24750802 -0.14877139 0.06946928 -0.035750475 -0.18478808
0.012356841 -0.16885452 -0.20614369 -0.13144699 -0.21320915 -0.16566353 0.24405816 0.041145884
0.073556386 -0.24019341 -0.16005087 -0.07652169 0.040044148 -0.22669527 -0.102365896 -0.14462379
-0.0035948486 -0.083421364 -0.021492422 -0.17747858 -0.17612724 -0.13845609 -0.08247578 -0.18875907
0.20203742 -0.056752566 0.22227612 0.08486618 -0.2037026 0.16580622 -0.062183786 -0.089620724
-0.21498574 -0.2454807 0.06421829 -0.061068647 0.09003506 -0.19853611 0.19302864 -0.17751315
-0.036911797 0.051805314 0.12242034 0.19411387 0.22223955 -0.1947287 0.06667109 -0.103194416
-0.030471865 -0.19033298 0.23408003 -0.17969747 0.14075749 0.079481736 0.075111955 -0.14303073
0.22243547 0.049264666 0.036915254 -0.21390282 0.1078627 -0.043344244 -0.107340984 0.22231106
0.049857646 -0.1288746 -0.1313461 -0.01892302 0.13450043 -0.057344344 -0.13836928 -0.07783526
-0.18233371 0.096080214 0.18828292 -0.24191119 0.056174394 0.13627757 0.037200764 -0.09770758
0.138599 0.12397343 0.09875344 -0.036720596 -0.06080513 0.019747857 -0.048444025 -0.081850395
0.15987055 0.21477228 -0.02892794 -0.05772959 0.00048557442 -0.01342666 0.06091257 0.07012574
-0.22740483 -0.09126477 0.2177887 0.09667603 -0.0066673257 -0.15067476 -0.15886249 -0.21736753
-0.07563312 0.08167019 0.1499583 0.108155005 -0.22705585 -0.15236805 -0.035225097 0.2463086
0.03252145 -0.06626934 0.1110123 -0.0987564 -0.15365838 0.18461993 -0.12091984 -0.046474446
-0.2550581 0.16439031 0.19325733 0.09504746 -0.16841799 -0.24896881 -0.20440476 0.18238232
0.1194858 0.20511548 0.12627959 0.06095218 -0.0073433886 -0.18742801 -0.20931342 -0.23152857
0.0982561 -0.12629117 -0.047151417 -0.13508894 -0.047601014 -0.17829186 -0.16016951 0.084863044
-0.0771818 0.15553685 -0.087236956 -0.18853442 -0.0520545 -0.11656369 -0.06937758 -0.22957318
0.14585479 -0.17693335 0.12018674 0.10571795 0.17356361 -0.19179519 0.18429206 -0.11335823
0.088254645 0.22939402 -0.029557291 -0.0010970538 -0.051286776 -0.21311978 0.114562005 -0.25737464
0.15024297 0.1860266 0.24285302 -0.05190622 -0.20074552 0.05093585 0.1354874 -0.25139344
-0.05405893 -0.1447502 -0.027763225 -0.13166916 -0.10829881 -0.07073425 -0.23209718 0.21354777
0.21454406 -0.033083707 -0.03233198 -0.10880696 -0.22645937 -0.2376277 0.084731616 -0.1459268
-0.15384066 -0.029045606 -0.07860755 -0.07360987 0.013160031 -0.05969099 -0.089453876 -0.12765555
-0.20871799 0.20718573 -0.09336634 0.07315662 -0.081425436 0.012241975 0.22969651 0.11216997
-0.21318404 0.10490927 0.23105474 0.057395454 0.16142477 0.25471812 -0.032415282 0.06024814
00000000: 272e 9f3d 0dc3 51bd 6fdb 533e 0f65 18be
00000010: 1137 17be 339f 19be 725d 653e e8e0 aa3d
00000020: e8fe 763e f9e4 52be e8ad 7cbe fc7b 47be
00000030: 3482 27be 5250 ce3d 40e6 b73d fbf4 563e
00000040: 451d 05be 97a9 2bbe 0827 053e 18e1 dcbd
00000050: c2e2 213e 498a 67bd 6c28 0f3e b722 4abe
00000060: b8a8 fdbd 5931 993d 1bf5 653d 18aa 6fbd
00000070: 4943 1c3e e233 293e e8e9 3abe 8834 12be
00000080: 2220 6f3e 22f6 9fbd 0b4d c2bd be72 7dbe
00000090: 8757 18be e945 8e3d 176f 12bd 1639 3dbe
000000a0: 5974 4a3c 33e8 2cbe 5517 53be 0a9a 06be
000000b0: 8053 5abe b3a3 29be 62ea 793e 9688 283d
000000c0: bba4 963d 43f5 75be 60e4 23be 67b7 9cbd
000000d0: 5505 243d ce22 68be 36a5 d1bd 4218 14be
000000e0: 8d97 6bbb d2d8 aabd e010 b0bc f2bc 35be
000000f0: b35a 34be 6fc7 0dbe 10e9 a8bd 0f4a 41be
00000100: e6e2 4e3e 6175 68bd 5a9c 633e 52ce ad3d
00000110: 6a97 50be 1bc9 293e 6db4 7ebd 128b b7bd
00000120: 3925 5cbe 4b5f 7bbe e184 833d 1e23 7abd
00000130: 4d64 b83d 0d4d 4bbe 4da9 453e 02c6 35be
00000140: d330 17bd cf31 543d 84b7 fa3d c9c5 463e
00000150: c492 633e f666 47be da8a 883d 9857 d3bd
00000160: 22a0 f9bc a6e6 42be adb2 6f3e 9d02 38be
00000170: bb22 103e 52c7 a23d 4cd4 993d a676 12be
00000180: 20c6 633e bfc9 493d 7334 173d 5709 5bbe
00000190: 1fe7 dc3d bc89 31bd 97d5 dbbd 83a5 633e
000001a0: 8837 4c3d b4f7 03be 987f 06be 7304 9bbc
000001b0: 7bba 093e e7e1 6abd adb0 0dbe 1868 9fbd
000001c0: b0b5 3abe b4c5 c43d 3dcd 403e 91b7 77be
000001d0: 1f17 663d 598c 0b3e d45f 183d e91a c8bd
000001e0: e5ec 0d3e c8e5 fd3d 3e3f ca3d 5668 16bd
000001f0: cd0e 79bd 42c6 a13c 3e6d 46bd 2ea1 a7bd
00000200: 1bb5 233e 44ed 5b3e 4afa ecbc dd75 6cbd
00000210: b294 fe39 7efb 5bbc 767f 793d 159e 8f3d
00000220: d0dc 68be 06e9 babd 0004 5f3e 15fe c53d
00000230: 9579 dabb 7c4a 1abe d9ac 22be 9895 5ebe
00000240: 8ae5 9abd b342 a73d ab8e 193e 5f80 dd3d
00000250: 5481 68be 5f06 1cbe 3148 10bd 5238 7c3e
00000260: 3635 053d 38b8 87bd 6b5a e33d cc40 cabd
00000270: 9f58 1dbe 020d 3d3e d2a4 f7bd fd5b 3ebd
00000280: fa96 82be ef55 283e 40e5 453e 3ea8 c23d
00000290: c475 2cbe aef1 7ebe 7b4f 51be 6ec2 3a3e
000002a0: f9b4 f43d cb09 523e 704f 013e fea8 793d
000002b0: cfa0 f0bb 21ed 3fbe 4256 56be d315 6dbe
000002c0: 7f3a c93d 7952 01be d821 41bd c154 0abe
000002d0: 48f9 42bd 2492 36be 7a03 24be adcc ad3d
000002e0: 7e11 9ebd 0d45 1f3e 4aa9 b2bd 2b0f 41be
000002f0: 1937 55bd f2b8 eebd d515 8ebd 3b15 6bbe
00000300: f55a 153e 042e 35be 7724 f63d a782 d83d
00000310: a9ba 313e f565 44be 0fb7 3c3e 5c28 e8bd
00000320: dabe b43d 44e6 6a3e 2222 f2bc 04cb 8fba
00000330: 1512 52bd 123c 5abe 7c9f ea3d 9cc6 83be
00000340: 4bd9 193e c27d 3e3e 76ae 783e 9e9b 54bd
00000350: 3c90 4dbe 1ca2 503d 36bd 0a3e a4b6 80be
00000360: e66c 5dbd 6539 14be b46f e3bc 48d4 06be
00000370: c4cb ddbd 1edd 90bd e2aa 6dbe 44ac 5a3e
00000380: 70b1 5b3e c882 07bd 8a6e 04bd 2fd6 debd
00000390: f7e4 67be ad54 73be c587 ad3d d66d 15be
000003a0: 6888 1dbe 0df1 edbc fffc a0bd c6c0 96bd
000003b0: 2c9d 573c 8a7e 74bd 9833 b7bd 23b8 02be
000003c0: 2bba 55be 7f28 543e da36 bfbd 23d3 953d
000003d0: 61c2 a6bd 9192 483c 9035 6b3e 5fb9 e53d
000003e0: eb4c 5abe acda d63d 9d99 6c3e 7f17 6b3d
000003f0: 894c 253e 6a6a 823e e3c5 04bd c1c6 763d

transformer.layers.0.self_attn.out_proj.bias f4 [16]
9.715147e-05 -0.003735615 -0.007573104 0.008783866 0.0063469303 0.0036048244 0.0074849674 -0.008208608
0.00014061428 0.0042681014 -0.00040131342 0.0027471539 0.004292786 -0.0009772016 -0.0076601137 -0.00071584433
00000000: ccbd cb38 38d1 74bb cd27 f8bb 34ea 0f3c
00000010: e9f9 cf3b eb3e 6c3b 7544 f53b 667d 06bc
00000020: dc71 1339 6edb 8b3b 6067 d2b9 9809 343b
00000030: 80aa 8c3b 7215 80ba b101 fbbb 80a7 3bba

transformer.layers.0.linear1.weight f4 [2048, 16]
-0.101715386 0.14218856 0.04611497 0.074179344 -0.046182364 0.10874615 -0.09806865 -0.23856789
-0.09525389 0.20271923 -0.07215314 0.072581396 -0.089303136 0.19626002 0.1507175 0.09749749
-0.13570991 -0.20894232 0.0076027205 -0.15130155 0.20049481 -0.24989235 0.11089656 0.2557399
0.13134153 0.08058667 -0.23525229 0.2491104 -0.0498429 -0.23512504 0.24622172 -0.093317345
-0.018351069 0.22066417 -0.17028183 -0.16776349 0.032977916 -0.031288795 0.060378946 -0.20778224
0.016476985 -0.10414031 -0.13031049 -0.23240536 0.1303796 0.05787802 -0.22055823 0.20802206
0.08042129 0.05176222 -0.14287582 0.04178377 0.24692935 0.17506899 -0.19912879 0.22352421
0.014692089 0.124055676 0.18994258 0.20854938 -0.1900445 0.22253738 -0.17322652 0.012925999
-0.18055156 -0.05596543 -0.014441856 -0.035250016 -0.039893847 0.016392555 0.24668711 0.14983808
0.14401236 0.093229145 0.19867335 -0.0017820226 0.014893986 0.04777651 -0.21471338 -0.19809105
0.02460324 -0.091509655 0.0012257205 -0.06362599 0.04500305 0.15644632 -0.08912417 0.20622863
0.20345058 -0.19778042 -0.18704717 -0.19621572 -0.1431715 -0.10132619 -0.025341766 -0.06654943
-0.11794325 -0.08240556 -0.09248557 0.25197762 -0.096514896 -0.17023659 0.109225355 -0.020809343
0.18684486 0.16502321 0.22267789 -0.19220725 0.16748807 0.21041791 -0.11970902 0.22692217
0.18755737 0.010850918 0.12015392 -0.08818558 -0.21044512 0.061423037 0.07292804 -0.1704082
0.118781894 -0.21531181 0.21535541 0.24466152 0.075019665 -0.1569576 0.12145111 0.037230927
0.07191317 0.09106593 0.18634279 -0.115227066 -0.047705237 0.06922036 0.027152373 0.19621976
-0.13770777 -0.013742704 0.050933402 -0.06722906 0.17516522 0.022108966 -0.22582126 -0.034119442
-0.12343881 0.018485686 -0.038859934 -0.25771946 -0.05080928 -0.028098924 -0.0735569 0.23965675
-0.044567563 0.15330563 0.07181521 -0.2022519 0.04872411 0.19741537 -0.17303403 -0.15180066
0.24211212 0.20577079 -0.13765979 0.14514928 -0.027495204 -0.24963626 0.01563755 0.08281893
-0.07380688 0.082972325 -0.20977557 0.17658849 0.21098185 0.1325656 0.041872114 0.07274057
-0.18705067 -0.05475117 -0.028070046 -0.14580743 -0.17742512 0.16134532 0.16283819 -0.22135364
0.08528514 0.09517082 0.24387947 0.15125458 0.22386055 -0.08790609 0.1787851 0.19398844
-0.24310796 -0.19381025 0.058295626 0.12996504 -0.11749039 0.020452576 -0.0074772513 0.07038119
-0.12754516 0.13439897 0.17280948 -0.16656265 -0.0046714894 0.0027908469 0.07215348 0.22745144
0.079677075 -0.055220764 0.22654982 -0.09041942 -0.070722 0.01708239 -0.1903136 0.021731054
-0.1741912 0.026120866 0.018452758 0.033953395 -0.20428567 -0.23658262 0.11494628 0.20910773
-0.23158059 0.10107087 -0.18211995 0.00860372 0.24099782 0.17975017 -0.19242926 0.16358434
0.13906476 -0.007540003 0.24983376 -0.089595735 -0.06760789 -0.12459458 0.029974006 0.07573281
0.027551683 -0.14857984 -0.12121262 0.09152954 -0.22675842 -0.03086845 0.0025892383 -0.108340606
0.08472383 0.023080098 0.16883 -0.029874235 -0.15040591 0.17476092 0.04429771 -0.07491662
00000000: 2850 d0bd e199 113e 0de3 3c3d 57eb 973d
00000010: b829 3dbd 4db6 de3d 37d8 c8bd 244b 74be
00000020: 7914 c3bd a195 4f3e 07c5 93bd 8ea5 943d
00000030: 90e4 b6bd 63f8 483e b055 1a3e c4ac c73d
00000040: 8af7 0abe faf4 55be 3e20 f93b cbee 1abe
00000050: 834e 4d3e c8e3 7fbe bc1d e33d 57f0 823e
00000060: 657e 063e a00a a53d fae5 70be cc16 7f3e
00000070: 1228 4cbd 9ec4 70be 8c21 7c3e 2a1d bfbd
00000080: fb54 96bc caf5 613e 5c5e 2ebe 31ca 2bbe
00000090: da13 073d ae28 00bd ea4f 773d dec4 54be
000000a0: befa 863c 8447 d5bd 1d70 05be acfb 6dbe
000000b0: 3b82 053e 8111 6d3d 04da 61be bc03 553e
000000c0: ebb3 a43d 9f04 543d 0a4e 12be 7525 2b3d
000000d0: 0cdb 7c3e 4945 333e 6be8 4bbe 88e3 643e
000000e0: 16b7 703c e710 fe3d 4f80 423e f88d 553e
000000f0: 079b 42be d7e0 633e 4b62 31be 92c7 533c
00000100: 82e2 38be 023c 65bd 899d 6cbc 5262 10bd
00000110: bb67 23bd ae49 863c 8c9b 7c3e 276f 193e
00000120: fa77 133e ecee be3d 0771 4b3e c292 e9ba
00000130: e805 743c 4db1 433d d3dd 5bbe 61d8 4abe
00000140: bc8c c93c 6a69 bbbd 5ba8 a03a 584e 82bd
00000150: 1e55 383d 7733 203e bc86 b6bd 992d 533e
00000160: 5955 503e f386 4abe 4b89 3fbe c6ec 48be
00000170: 8d9b 12be 1b84 cfbd 8999 cfbc 114b 88bd
00000180: 3b8c f1bd 3fc4 a8bd 1369 bdbd 3603 813e
00000190: 9aa9 c5bd 8052 2ebe 8bb1 df3d 5b78 aabc
000001a0: 4254 3f3e d8fb 283e ac05 643e fad1 44be
000001b0: fe81 2b3e cb77 573e 012a f5bd 495e 683e
000001c0: 0a0f 403e 0cc8 313c 4213 f63d a49a b4bd
000001d0: ed7e 57be b996 7b3d 4c5b 953d 7d7f 2ebe
000001e0: ec43 f33d b37a 5cbe 2186 5c3e 8d88 7a3e
000001f0: e9a3 993d 7eb9 20be 5cbb f83d 757f 183d
00000200: 3647 933d c680 ba3d a5d0 3e3e 2bfc ebbd
00000210: 9166 43bd 67c3 8d3d a76e de3c d5ed 483e
00000220: 4403 0dbe 1429 61bc 8b9f 503d 64af 89bd
00000230: 835e 333e dd1d b53c b03d 67be d4c0 0bbd
00000240: 7dcd fcbd 4b6f 973c 982b 1fbd cef3 83be
00000250: 641d 50bd b72f e6bc 00a5 96bd 9468 753e
00000260: 7a8c 36bd 27fc 1c3e da13 933d 1f1b 4fbe
00000270: ef92 473d 4127 4a3e d52f 31be a271 1bbe
00000280: 3dec 773e 94b5 523e b0f6 0cbe 03a2 143e
00000290: 9f3d e1bc a6a0 7fbe 521a 803c f99c a93d
000002a0: 1028 97bd 65ed a93d 68cf 56be 9dd3 343e
000002b0: a00b 583e 47bf 073e 1882 2b3d 02f9 943d
000002c0: 368a 3fbe c342 60bd 27f3 e5bc 8b4e 15be
000002d0: eeae 35be b537 253e 0ebf 263e 87aa 62be
000002e0: faa9 ae3d ebe8 c23d 8abb 793e 7be2 1a3e
000002f0: b33b 653e 1c08 b4bd 7113 373e e8a4 463e
00000300: 4bf1 78be 3276 46be 65c7 6e3d 8e15 053e
00000310: cd9e f0bd 298c a73c bb03 f5bb 0324 903d
00000320: 339b 02be e29f 093e f8f4 303e 668f 2abe
00000330: 4b13 99bb a4e6 363b 34c5 933d 08e9 683e
00000340: bc2d a33d 2b2f 62bd adfc 673e d12d b9bd
00000350: b2d6 90bd 5ef0 8b3c 91e1 42be 5305 b23c
00000360: 2e5f 32be 6dfb d53c 3d2a 973c b712 0b3d
00000370: 4330 51be b742 72be f568 eb3d 5620 563e
00000380: 7623 6dbe 3ffe ce3d a77d 3abe 9ef6 0c3c
00000390: 22c8 763e 6e10 383e 2d0c 45be a782 273e
000003a0: fe66 0e3e 2112 f7bb 6cd4 7f3e f87d b7bd
000003b0: 0176 8abd 712b ffbd 0c8c f53c ce19 9b3d
000003c0: 11b4 e13c 5025 18be 523e f8bd d773 bb3d
000003d0: 5c33 68be d5df fcbc 36b0 293b aee1 ddbd
000003e0: b083 ad3d 7912 bd3c c6e1 2c3e d0ba f4bc
000003f0: 0204 1abe 87f4 323e 8471 353d e36d 99bd

transformer.layers.0.linear1.bias f4 [2048]
-0.105420694 0.15470162 -0.09881135 0.014250213 -0.172642 0.19863245 0.18721947 0.062269304
0.09721138 -0.22010003 -0.18195108 -0.0036789954 -0.01590535 0.085688524 0.09120231 -0.0064683952
0.11653431 -0.048116103 0.13169454 -0.19150153 0.1543664 0.22092003 -0.002422041 0.13617548
-0.15413429 -0.007926079 -0.06693182 -0.008605794 -0.08234898 0.18681838 -0.10897906 0.07638897
0.13054971 0.21936552 0.20389442 -0.14241444 -0.030358065 0.16712612 0.06764261 0.13256164
0.08653691 -0.22785276 0.107807 0.19361965 0.11159967 -0.10587887 -0.047193456 -0.09352041
0.060813278 0.11226527 -0.18240872 0.017887482 -0.043705687 0.16571437 -0.041084696 -0.15778536
0.14629625 -0.11570699 -0.023304656 -0.07281826 0.09876003 -0.048100147 0.082632355 -0.16877522
-0.034181934 0.23004 -0.15568076 -0.039973747 -0.011676075 0.021779321 -0.091846325 0.08673058
-0.06585695 0.032589357 0.23448823 0.21644782 -0.075443074 -0.14287002 -0.15324622 -0.03347955
0.012890841 0.069193766 -0.0871291 0.12406883 -0.006661939 0.06652222 0.23179677 0.01887104
0.0032565864 -0.0725633 0.17494527 -0.21831276 -0.11543873 0.029149422 0.14695232 -0.25185862
-0.032939777 0.044026297 0.21004564 0.11846003 0.23191254 -0.05295298 -0.23590387 0.022910597
0.16137615 0.0030975232 0.04149315 0.23355372 -0.2273443 0.049695935 0.0848175 0.044312432
-0.07033903 -0.10448116 0.13961169 0.070486285 0.07653751 -0.013286332 -0.16167447 0.101580136
-0.13136908 -0.15483142 -0.11575105 -0.20509864 -0.20814511 -0.021809222 -0.23524171 0.18683586
-0.18852252 0.08711432 0.10590188 -0.1000361 0.05365093 0.23483334 -0.23057269 0.006221454
0.17558448 0.23223765 0.07454251 0.21246274 -0.12591286 0.22870709 0.028166737 -0.16314575
0.14553535 0.19845504 -0.20389152 0.12842849 0.060909823 0.20734367 -0.23207489 0.13183974
0.23997594 -0.08218707 0.08882955 -0.2198957 0.055215467 -0.1821001 -0.230978 0.10938358
0.13980289 0.14228633 0.18730372 -0.06653902 -0.18622033 0.14730644 0.19862367 -0.1984013
-0.21710718 -0.15794612 -0.14345014 0.16396701 -0.23153032 0.09107364 0.037034914 -0.18122381
-0.22251359 0.17201933 -0.15789497 -0.16883352 0.039918434 -0.23460676 -0.008287817 -0.057361014
-0.08798888 -0.22802651 -0.16944222 0.17618443 -0.16510648 0.11442395 0.19305345 -0.007986715
0.13376014 -0.17517081 -0.18377796 0.1909367 0.1397255 0.03763206 -0.17034279 -0.09820132
0.22741702 0.2529956 -0.19447644 0.10748827 -0.15188293 -0.04750228 -0.021004055 -0.20039536
-0.0013978295 -0.06883254 0.21406968 -0.12380335 -0.2032508 0.030576056 0.2511842 0.22073008
0.105834894 -0.2408816 0.13195172 -0.04794841 -0.19641368 -0.09829973 -0.22587629 -0.10673217
0.10364735 0.21528234 -0.19723763 0.089975886 0.06653776 -0.15370736 -0.05269348 -0.16806775
-0.16053773 0.21107274 0.23781016 0.0933112 -0.048739035 -0.11174967 0.07698413 -0.21815415
-0.1633686 0.116492234 0.17169999 -0.02247631 -0.11886839 0.119256906 0.15518156 -0.24301869
-0.048954464 -0.237309 -0.014032649 0.19144094 -0.22089718 -0.16764809 -0.031225534 0.07141705
00000000: cee6 d7bd 1a6a 1e3e 9b5d cabd ba79 693c
00000010: 10c9 30be 4e66 4b3e 76b6 3f3e 190e 7f3d
00000020: c316 c73d e761 61be 6251 3abe 4d1b 71bb
00000030: f04b 82bc 777d af3d 47c8 ba3d d5f4 d3bb
00000040: 8aa9 ee3d 6415 45bd efda 063e fa18 44be
00000050: 3a12 1e3e dc38 623e 1bbb 1ebb 9671 0b3e
00000060: 61d5 1dbe 63dc 01bc 8d13 89bd 51ff 0cbc
00000070: 95a6 a8bd 514d 3f3e 6a30 dfbd d271 9c3d
00000080: d3ae 053e 5ba1 603e b3c9 503e 17d5 11be
00000090: 7ab1 f8bc 1c23 2b3e 3588 8a3d 3dbe 073e
000000a0: 433a b13d 3c52 69be ebc9 dc3d 3b44 463e
000000b0: 5e8e e43d 05d7 d8bd ed4d 41bd a187 bfbd
000000c0: 5817 793d 55eb e53d 5ac9 3abe c588 923c
000000d0: bc04 33bd 07b1 293e 6d48 28bd 7c92 21be
000000e0: afce 153e c9f7 ecbd 68e9 bebc bd21 95bd
000000f0: b342 ca3d a904 45bd 273b a93d 69d3 2cbe
00000100: 5b02 0cbd 9b8f 6b3e c76a 1fbe 83bb 23bd
00000110: 024d 3fbc 8c6a b23c ed19 bcbd cd9f b13d
00000120: 02e0 86bd 6b7c 053d af1d 703e 7fa4 5d3e
00000130: e681 9abd 854c 12be 94ec 1cbe da21 09bd
00000140: 1b34 533c 76b5 8d3d be70 b2bd cc17 fe3d
00000150: 654c dabb cd3c 883d 225c 6d3e 7097 9a3c
00000160: 746c 553b 119c 94bd da24 333e 618d 5fbe
00000170: 246b ecbd c5ca ee3c ab7a 163e 9df3 80be
00000180: dceb 06bd eb54 343d 3416 573e 2c9b f23d
00000190: 7b7a 6d3e 39e5 58bd c990 71be 01af bb3c
000001a0: ca3f 253e d1ff 4a3b b9f4 293d b528 6f3e
000001b0: f2cc 68be f78d 4b3d ccb4 ad3d f480 353d
000001c0: e90d 90bd 38fa d5bd 5ef6 0e3e 1d5b 903d
000001d0: b3bf 9c3d eaae 59bc fe8d 25be 3f09 d03d
000001e0: 9e85 06be 218c 1ebe e30e edbd 6105 52be
000001f0: fe23 55be 41a9 b2bc 34e3 70be e651 3f3e
00000200: 0c0c 41be fe68 b23d 16e3 d83d badf ccbd
00000210: 14c1 5b3d 2778 703e 3f1b 6cbe 57dd cb3b
00000220: 6bcc 333e b5cf 6d3e bea9 983d d58f 593e
00000230: 4def 00be 3132 6a3e eebd e63c ae0f 27be
00000240: 3807 153e cc37 4b3e f0c8 50be c282 033e
00000250: 947c 793d e651 543e 0aa5 6dbe ff00 073e
00000260: 41bc 753e b251 a8bd 44ec b53d 572c 61be
00000270: 9d29 623d 7378 3abe 7f85 6cbe 8004 e03d
00000280: 7d28 0f3e 82b3 113e 8ccc 3f3e 9c45 88bd
00000290: 8bb0 3ebe 80d7 163e 0164 4b3e b629 4bbe
000002a0: 5851 5ebe a1bc 21be 98e4 12be f8e6 273e
000002b0: 4916 6dbe d184 ba3d ecb1 173d bc92 39be
000002c0: 9ada 63be d625 303e 38af 21be b2e2 2cbe
000002d0: 8381 233d c13c 70be a0c9 07bc 62f3 6abd
000002e0: 8433 b4bd c87f 69be 4382 2dbe b169 343e
000002f0: ac11 29be 1b57 ea3d ceaf 453e b6da 02bc
00000300: 6bf8 083e fa5f 33be 4a30 3cbe e984 433e
00000310: 3414 0f3e 1324 1a3d 576e 2ebe c61d c9bd
00000320: 02e0 683e a488 813e d524 47be cf22 dc3d
00000330: 3387 1bbe c091 42bd b210 acbc 7134 4dbe
00000340: 6037 b7ba 13f8 8cbd 1535 5b3e 9c8c fdbd
00000350: fa20 50be a37a fa3c 379b 803e 1107 623e
00000360: f7bf d83d aba9 76be 5a1e 073e 8d65 44bd
00000370: ab20 49be 5e51 c9bd 1d4c 67be 6596 dabd
00000380: 1045 d43d f972 5c3e a9f8 49be 4745 b83d
00000390: f344 883d 7665 1dbe 1ed5 57bd f419 2cbe
000003a0: 0164 24be 7423 583e 8284 733e f119 bf3d
000003b0: 95a2 47bd 03dd e4bd dba9 9d3d cd63 5fbe
000003c0: 194a 27be 7b93 ee3d 1fd2 2f3e 3d20 b8bc
000003d0: 4571 f3bd f73c f43d eae7 1e3e e4d9 78be
000003e0: 7a84 48bd 2101 73be 32e9 65bc 1809 443e
000003f0: df32 62be f1ab 2bbe b1cc ffbc 1a43 923d

transformer.layers.0.linear2.weight f4 [16, 2048]
0.012981164 -0.0033085647 -0.00965754 0.013238469 -0.021721376 0.0076202857 0.014295056 0.01733002
-0.025967835 0.018651888 0.017548 0.017432062 0.0041177333 -0.023217423 0.008626296 -0.02234866
-0.021930298 -0.010092975 0.017007379 -0.018350545 -0.018100599 -0.016422829 -0.017031854 -0.01916076
-0.0024374416 -0.023044456 0.013071397 0.015829885 -0.02493956 0.0058198175 0.01310037 -0.014018834
-0.018909734 0.004587754 0.014938113 -0.005621514 -0.012620697 -0.00781013 0.0047699264 -0.0034020115
-0.013106319 0.007897711 -0.020047026 -0.015299268 -0.011355888 0.009296673 0.011756316 -0.006738564
-0.018905161 -0.02041569 0.009504465 -0.0011470772 -0.018316267 -0.019826474 0.01636725 -0.0202538
-0.0055706617 0.019255215 -0.0058457702 0.012463439 0.011111938 -0.022324057 0.019505568 -0.018983735
0.00804101 -0.0016586197 0.0011015107 0.0108686425 -0.010184401 -0.008947839 -0.022482207 0.009978089
0.0055544195 0.009287356 0.008738842 -0.0010528495 -0.0154886935 -0.022232208 -0.012648392 -0.014619815
-0.015648454 -7.681862e-05 -0.022811182 -0.018025208 0.012236369 -0.019118883 -0.0033598936 0.008394115
-0.009798356 0.003654208 0.0069476664 0.0083496785 0.002196175 -0.011413152 -0.012383399 0.008910787
-0.019928511 0.017301891 0.011410973 0.0018457733 0.015272536 -0.019504474 -0.00056535355 -0.014649464
0.010994122 -0.0046726936 0.014479506 -0.0157244 -0.012330769 0.018873474 -0.01155801 0.00023622758
-0.00093945896 0.0064082504 0.0035211549 0.0053160787 -0.0077778846 -0.0023132337 0.014139875 -0.022347035
0.01347918 0.0048050797 -0.019821692 -0.0068375743 -0.022821158 0.010907748 -0.031328656 -0.004367642
0.0121087 0.0035629766 -0.021225033 -0.0015751856 0.01915509 0.008811285 0.0028560753 -0.020979524
0.010599798 0.015377795 0.019822063 0.01835209 0.02105431 0.00073161226 -0.015382794 0.010554486
-0.0105352765 -0.0014974773 0.0133095635 0.0069176904 -0.0131485695 -0.016363028 -0.011200717 0.0028661026
-0.018848887 -0.020238558 -0.00273489 -0.01978096 0.003848943 -0.0071828812 -0.0032024332 0.0072961515
-0.020003494 -0.008394057 0.008076812 0.013578322 0.016863994 0.015755879 0.003581279 -0.00470289
-0.013298297 -0.0055400752 -0.0001895024 0.007510846 -0.0057344614 -0.0099086 -0.0023444386 0.02014239
0.012154973 0.019455181 -0.016244143 -0.012446007 0.011838273 0.003292567 -0.0145564135 0.018260593
0.008725924 -0.010046026 -0.010037402 0.013747386 0.006795362 0.010776583 0.012470586 -0.019136239
0.0037154662 0.0012218142 0.01851523 0.005363184 0.014704573 -0.01709544 -0.0075293253 -0.014231631
-0.024996689 0.0044262074 -0.009561971 -0.003067849 -0.002205028 -0.010912864 -0.005277677 0.005998091
0.011381275 -0.01323378 -0.009166557 0.004571942 0.013054753 -0.01204949 0.013581543 -0.011912328
-0.008002935 -0.005554931 0.0072397348 -0.0015260244 0.003410688 0.010397617 -0.012614183 0.007264108
-0.004156368 -0.00866334 -0.005601316 7.028709e-05 -0.007791454 0.018504046 0.0016951208 0.02131772
-0.0016969098 -0.008365303 -0.006810038 -0.014760531 -0.00269348 0.017954199 -0.0011152608 0.013845958
-0.025422713 -0.0062717414 0.008975858 0.0063389665 -0.0008455471 -0.01283892 -0.003979885 -0.004151894
-0.009063369 -0.0038146626 -0.01092549 -0.00656361 -0.0124981 -0.0073677446 -0.007778866 0.0019648727
00000000: f3ae 543c 81d4 58bb a93a 1ebc 2ae6 583c
00000010: 07f1 b1bc 97b3 f93b d035 6a3c b0f7 8d3c
00000020: 7fba d4bc d8cb 983c d3c0 8f3c afcd 8e3c
00000030: 0dee 863b 7732 bebc 4f55 0d3c 8914 b7bc
00000040: 2ba7 b3bc 015d 25bc 0f53 8b3c e253 96bc
00000050: b547 94bc 2b89 86bc 6386 8bbc 07f7 9cbc
00000060: 7cbd 1fbb bac7 bcbc 6a29 563c adad 813c
00000070: 0c4e ccbc 2bb4 be3b efa2 563c 40af 65bc
00000080: 96e8 9abc df54 963b fdbe 743c ad34 b8bb
00000090: 0ac7 4ebc 1eec ffbb 0b4d 9c3b 48f4 5ebb
000000a0: e3bb 56bc 6765 013c a939 a4bc c8a9 7abc
000000b0: 0c0e 3abc 1351 183c 909d 403c 2ccf dcbb
000000c0: ffde 9abc ce3e a7bc 9eb8 1b3c 8659 96ba
000000d0: ff0b 96bc 216b a2bc 9c14 863c 4ceb a5bc
000000e0: 198a b6bb 1dbd 9d3c e08d bfbb 7433 4c3c
000000f0: d90e 363c f1e0 b6bc 24ca 9f3c c783 9bbc
00000100: 71be 033c 0b66 d9ba 9160 903a 6412 323c
00000110: 79dc 26bc f599 12bc 9b2c b8bc 237b 233c
00000120: d901 b63b ff29 183c 5c2d 0f3c c4ff 89ba
00000130: 4ac4 7dbc 5220 b6bc 333b 4fbc f387 6fbc
00000140: 3031 80bc af19 a1b8 84de babc 9aa9 93bc
00000150: 0d7b 483c 349f 9cbc a931 5cbb 7887 093c
00000160: 4989 20bc 707b 6f3b 40a9 e33b 17cd 083c
00000170: b4ed 0f3b 3bfe 3abc bde3 4abc 8dfe 113c
00000180: 1e41 a3bc b2bc 8d3c 17f5 3a3c e0ed f13a
00000190: a939 7a3c d9c7 9fbc 3c34 14ba 4e04 70bc
000001a0: b120 343c 651d 99bb 733b 6d3c 75d0 80bc
000001b0: fe06 4abc 8b9c 9a3c cf5d 3dbc dcb3 7739
000001c0: 0646 76ba 4dfc d13b 2dc3 663b 8032 ae3b
000001d0: a0dd febb 9f99 17bb efaa 673c 2111 b7bc
000001e0: c7d7 5c3c ee73 9d3b 1a61 a2bc bb0d e0bb
000001f0: 70f3 babc 69b6 323c 7a52 00bd 701e 8fbb
00000200: 9263 463c d480 693b 1fe0 adbc 7576 ceba
00000210: 23eb 9c3c 355d 103c fe2c 3b3b 40dd abbc
00000220: c6aa 2d3c 26f3 7b3c e161 a23c 1f57 963c
00000230: 177a ac3c abc9 3f3a 1d08 7cbc b9ec 2c3c
00000240: 279c 2cbc 0047 c4ba 5b10 5a3c cbad e23b
00000250: 196d 57bc c20b 86bc 3683 37bc 39d5 3b3b
00000260: fb68 9abc 55cb a5bc d73b 33bb ae0b a2bc
00000270: 8c3e 7c3b 605e ebbb eadf 51bb 8e14 ef3b
00000280: 5ede a3bc 3a87 09bc 9b54 043c 9c77 5e3c
00000290: 5c26 8a3c 7912 813c e4b3 6a3b b31a 9abb
000002a0: 1ae1 59bc 8589 b5bb 2ab5 46b9 8b1d f63b
000002b0: 26e8 bbbb ae57 22bc 27a5 19bb a701 a53c
000002c0: a725 473c 7960 9f3c 7012 85bc 56ea 4bbc
000002d0: 51f5 413c 1cc8 573b 067e 6ebc 3d97 953c
000002e0: 2ef7 0e3c 1698 24bc ea73 24bc b73c 613c
000002f0: a1ab de3b 4490 303c 6e51 4c3c 9ac3 9cbc
00000300: 2e7f 733b 4825 a03a 40ad 973c a6bd af3b
00000310: 73eb 703c bc0b 8cbc 8fb8 f6bb c92b 69bc
00000320: dbc5 ccbc b809 913b d0a9 1cbc f70d 49bb
00000330: 3b82 10bb decb 32bc 5df0 acbb a28b c43b
00000340: 8778 3a3c 7fd2 58bc 542f 16bc 3bd0 953b
00000350: 9ae3 553c 396b 45bc 1f85 5e3c ed2b 43bc
00000360: be1e 03bc 2306 b6bb 4c3b ed3b e204 c8ba
00000370: d985 5f3b c45a 2a3c b8ab 4ebc c107 ee3b
00000380: 2432 88bb aef0 0dbc 3f8b b7bb 1867 9338
00000390: 744f ffbb cc95 973c d12e de3a 80a2 ae3c
000003a0: d86a deba a00e 09bc bd26 dfbb 27d6 71bc
000003b0: 1985 30bb af14 933c f12d 92ba 28da 623c
000003c0: 4b43 d0bc 2e83 cdbb 7a0f 133c 1bb7 cf3b
000003d0: b5a7 5dba 555a 52bc b269 82bb 9c0c 88bb
000003e0: 867e 14bc 6bff 79bb d400 33bc 8d13 d7bb
000003f0: d5c4 4cbc 1f6d f1bb dce5 febb 18c5 003b

transformer.layers.0.linear2.bias f4 [16]
-0.0055946046 -0.008933843 -0.022029353 0.0073675606 0.0038750458 0.012925552 0.025000148 -0.022868905
0.00039406942 -0.0036149244 0.01901216 0.022791585 0.022386897 -0.004695968 0.0025842583 -0.011976854
00000000: f252 b7bb 415f 12bc e776 b4bc 946b f13b
00000010: 7bf4 7d3b b2c5 533c 1ccd cc3c 9257 bbbc
00000020: 1a9b ce39 5ee8 6cbb 64bf 9b3c 6bb5 ba3c
00000030: ba64 b73c a2e0 99bb a95c 293b 913a 44bc

transformer.layers.0.norm1.weight f4 [16]
0.99956876 1.0060833 1.0058706 1.0060877 0.99356914 0.9989378 1.0068978 1.0026001
1.0023605 0.9947976 0.9953867 0.99548984 0.995268 1.0033956 0.9956323 1.0063676
00000000: bde3 7f3f 56c7 803f 5ec0 803f 7bc7 803f
00000010: 8c5a 7e3f 63ba 7f3f 07e2 803f 3355 803f
00000020: 594d 803f 0eab 7e3f aad1 7e3f 6cd8 7e3f
00000030: e2c9 7e3f 446f 803f c2e1 7e3f a7d0 803f

transformer.layers.0.norm1.bias f4 [16]
-0.0023777678 -0.0017324195 -0.0035403208 8.1296865e-05 0.008582754 0.0019032664 0.003944349 -0.006328067
0.0015240627 0.003036039 0.0055844695 0.0046779644 0.0046265903 -0.0032221114 -0.004879887 -0.004201381
00000000: 53d4 1bbb 5a12 e3ba ba04 68bb ec7d aa38
00000010: ae9e 0c3c 0677 f93a 993f 813b ac5b cfbb
00000020: 0fc3 c73a 48f8 463b edfd b63b 9c49 993b
00000030: a79a 973b 0f2a 53bb 76e7 9fbb bdab 89bb

transformer.layers.0.norm2.weight f4 [16]
1.0001736 1.0059414 1.0088229 1.0086871 0.9935224 0.99626076 1.009208 1.0078865
1.0072336 0.9966783 0.994992 0.99505556 0.99347216 1.0011278 1.002881 1.0098155
00000000: b005 803f b0c2 803f 1c21 813f a91c 813f
00000010: 7c57 7e3f f20a 7f3f ba2d 813f 6d02 813f
00000020: 08ed 803f 4f26 7f3f ccb7 7e3f f6bb 7e3f
00000030: 3154 7e3f f524 803f 685e 803f a241 813f

transformer.layers.0.norm2.bias f4 [16]
-0.0037978224 -0.0039675264 -0.005413901 -0.0022596528 0.0050824913 0.0034220577 0.0057917847 -0.005080165
0.0035573388 0.0036448718 0.0052163918 0.004107515 0.002849168 -0.0033945676 -0.0050491467 -0.0029282267
00000000: e3e4 78bb 0602 82bb 1867 b1bb af16 14bb
00000010: 078b a63b 9a44 603b 03c9 bd3b 8377 a6bb
00000020: 3e22 693b cdde 6e3b 44ee aa3b 5598 863b
00000030: 1bb9 3a3b 6577 5ebb 5073 a5bb 7ee7 3fbb

fc.weight f4 [3, 16]
-0.25380844 -0.24031712 0.09662191 -0.19424617 -0.13898048 0.06467127 -0.23276317 0.16747147
0.1818446 -0.022596901 0.075912826 0.17523964 0.08880288 -0.24324292 0.101292804 -0.258907
-0.14796622 -0.256527 -0.14357531 0.007473768 0.0095559945 0.021215871 0.0198708 -0.21984662
0.041257616 -0.06851356 0.15144885 0.20578605 -0.01404824 0.028502865 -0.14709902 0.11584116
0.20709147 0.0700628 0.071905985 -0.011681055 -0.15817216 -0.04207831 -0.16893157 0.19587536
-0.15016724 -0.19366646 0.07493663 -0.083818145 -0.032181602 0.24396946 0.12391486 0.18230137
00000000: 2ef3 81be b115 76be b5e1 c53d 78e8 46be
00000010: e650 0ebe 5f72 843d 7859 6ebe a47d 2b3e
00000020: 7935 3a3e 231d b9bc 2f78 9b3d 0572 333e
00000030: 49de b53d ac14 79be 9a72 cf3d 758f 84be
00000040: 7584 17be 8257 83be 6805 13be 83e6 f43b
00000050: bf90 1c3c e8cc ad3c 17c8 a23c 791f 61be
00000060: bffd 283d d650 8cbd 6815 1b3e 94b9 523e
00000070: 972a 66bc d77e e93c 20a1 16be 213e ed3d
00000080: c90f 543e 167d 8f3d 7243 933d e561 3fbc
00000090: e2f7 21be 4e5a 2cbd 66fc 2cbe 8d93 483e
000000a0: 71c5 19be 8050 46be 6078 993d d9a8 abbd
000000b0: dbd0 03bd 21d3 793e 13c7 fd3d 36ad 3a3e

fc.bias f4 [3]
-0.055054113 -0.06977757 -0.17046425
00000000: 6c80 61bd 8be7 8ebd 2e8e 2ebe
