transformer_model.pth (torch, 557519 bytes, 16 tensors)

embedding.weight f4 [32, 3]
0.43736947 0.48434693 -0.13844284 0.52360666 -0.12100271 0.110545345 -0.27359405 0.3361282
0.5131055 -0.4308801 0.5048805 0.10917594 0.422566 0.072568044 0.2828861 -0.08541498
0.4505825 0.082733646 -0.27579194 0.1513417 -0.26833153 -0.06926975 -0.23135436 0.38187507
-0.44966587 -0.27138904 -0.1588013 -0.3525813 0.057735562 -0.56817317 0.5257706 -0.4819761
0.435981 0.09174311 -0.18343899 0.35231486 0.09373541 0.46205723 0.06512935 -0.17662792
0.15071112 -0.15366356 0.251952 0.5214793 0.32968208 -0.2547422 0.32455102 0.1132883
0.29749396 -0.3465444 -0.57724917 -0.2298268 -0.4500332 0.47854018 0.16078717 0.23481475
0.18119988 -0.015767211 0.4569374 -0.41277462 0.040821824 -0.39884174 0.17873994 -0.20515877
0.18079838 -0.118259065 0.4732976 -0.3375367 -0.34607226 -0.3376184 0.51414996 0.19727348
0.5613628 -0.48129877 -0.5690985 -0.45849782 -0.38600287 0.2334815 0.2125728 0.47503978
-0.29466063 -0.3881297 0.31186944 -0.23760371 0.35638827 -0.13619295 0.32624176 -0.44610932
-0.29066262 0.17109866 0.12789436 -0.15135214 0.34495538 0.3872706 -0.4132532 -0.31420153
00000000: e4ee df3e 52fc f73e f6c3 0dbe 160b 063f
00000010: 45d0 f7bd 9965 e23d 8514 8cbe ff18 ac3e
00000020: e25a 033f 519c dcbe d93f 013f a397 df3d
00000030: 925a d83e 8e9e 943d 72d6 903e 0dee aebd
00000040: c0b2 e63e 4270 a93d 9a34 8dbe 52f9 1a3e
00000050: c062 89be 4cdd 8dbd 28e8 6cbe 2185 c33e
00000060: 9b3a e6be 81f3 8abe cf9c 22be 8985 b4be
00000070: 207c 6c3d cc73 11bf e798 063f 92c5 f6be
00000080: e738 df3e d0e3 bb3d 6ed7 3bbe 9d62 b43e
00000090: 5af8 bf3d c492 ec3e 8962 853d f3dd 34be
000000a0: 0454 1a3e fb59 1dbe daff 803e ab7f 053f
000000b0: 17cc a83e 926d 82be 8d2b a63e b203 e83d
000000c0: 2151 983e 456e b1be 9ac6 13bf b757 6bbe
000000d0: c06a e6be 3803 f53e 64a5 243e 4773 703e
000000e0: 768c 393e 3d2a 81bc b3f3 e93e 3257 d3be
000000f0: c934 273d fc34 ccbe 9a07 373e 2415 52be
00000100: 3623 393e cf31 f2bd 1054 f23e 9cd1 acbe
00000110: 6230 b1be 52dc acbe 559f 033f 0f02 4a3e
00000120: 79b5 0f3f cb6c f6be 70b0 11bf 3ac0 eabe
00000130: 2ba2 c5be c615 6f3e afac 593e 6a38 f33e
00000140: c2dd 96be f0b8 c6be 5aad 9f3e 634e 73be
00000150: 8678 b63e 2a76 0bbe 2909 a73e 7168 e4be
00000160: bbd1 94be 7d34 2f3e bdf6 023e 0efc 1abe
00000170: fe9d b03e 5548 c63e ec95 d3be 06df a0be

embedding.bias f4 [32]
0.5309103 -0.19748536 -0.20698403 -0.55440336 -0.32851794 0.14759666 -0.06970279 -0.42020348
0.009210537 -0.38529378 -0.49792403 -0.32103032 -0.50581044 -0.3739289 0.5738375 0.114184104
0.17399943 -0.53628683 -0.37635493 -0.19024795 0.08650596 -0.50141 -0.2433983 -0.34452432
0.0029538812 -0.20623788 -0.03986139 -0.3930059 -0.4041252 -0.34289595 -0.20610243 -0.45386267
00000000: bde9 073f 9a39 4abe 9ff3 53be 61ed 0dbf
00000010: 8133 a8be 9423 173e 56c0 8ebd e924 d7be
00000020: cbe7 163c 3a45 c5be e6ef febe 165e a4be
00000030: cb7c 01bf 9c73 bfbe 04e7 123f 5bd9 e93d
00000040: e82c 323e 184a 09bf 98b1 c0be 5cd0 42be
00000050: 092a b13d 685c 00bf 673d 79be 7e65 b0be
00000060: e795 413b 0630 53be b245 23bd 1238 c9be
00000070: 80e9 cebe 0f90 afbe 840c 53be b060 e8be

transformer.layers.0.self_attn.in_proj_weight f4 [96, 32]
0.026543975 -0.08470817 -0.0039728433 -0.049679294 0.03370197 0.14086239 -0.07180259 0.17339142
0.17094512 -0.16616821 -0.16719188 -0.17516986 -0.11864986 -0.08428079 -0.016296312 -0.052652657
-0.109389514 -0.06878267 -0.07831998 0.21240099 -0.0802435 -0.15501875 0.09000115 -0.01250574
0.16574945 0.13528024 0.19891061 -0.15856048 0.13918401 0.18170051 -0.10691766 0.19900827
0.16230245 0.0023709983 0.10438906 -0.075695276 -0.18883333 0.054728493 0.064546004 -0.14149967
0.10500552 -0.18494463 0.18633057 0.20966266 0.05894567 -0.13584231 0.10536741 0.036896095
0.05887215 0.07115553 0.1648383 -0.09306221 -0.04870203 0.059042558 0.023590773 0.1745859
-0.113717474 -0.007884443 0.04045491 -0.057501704 0.14759599 0.023681805 -0.20010166 -0.023455396
-0.098197944 0.021038175 -0.02516149 -0.21476005 -0.03945294 -0.020736828 -0.06384306 0.19892178
-0.047241494 0.1390874 0.053632453 -0.18276018 0.050875977 0.1794265 -0.14161694 -0.13994429
0.21192704 0.17396499 -0.12078759 0.13028161 -0.0276981 -0.21345997 0.016266868 0.06995191
-0.06494343 0.07531898 -0.18513477 0.15004234 0.18457909 0.119396046 0.036695942 0.071306124
-0.15665269 -0.054099172 -0.020669341 -0.12048278 -0.15991592 0.14562596 0.14693101 -0.19662851
0.06889491 0.088075265 0.20567419 0.12526055 0.19904222 -0.07088195 0.1516381 0.17610656
-0.20445302 -0.1737911 0.043822065 0.11822064 -0.10756318 0.023844808 -0.0003143102 0.054799423
-0.116339594 0.12211801 0.14397876 -0.15022472 0.0020973831 0.0006007105 0.06952359 0.20169397
0.063493386 -0.04919499 0.19445147 -0.082387775 -0.06286733 0.014782041 -0.1648715 0.023559645
-0.14689425 0.022261322 0.020742938 0.029968962 -0.18257885 -0.20563433 0.09961833 0.18567495
-0.19212174 0.0801927 -0.15937498 0.013573065 0.20142834 0.16424586 -0.1582964 0.13392474
0.11308499 -0.00033208728 0.2097355 -0.08599095 -0.050384462 -0.109425366 0.031154573 0.057328
0.017251268 -0.121814504 -0.0974639 0.07364519 -0.18983848 -0.033717513 -0.0047959536 -0.08772056
0.07879056 0.013954639 0.15200146 -0.01922825 -0.13664548 0.15297295 0.030234843 -0.062007025
-0.14269994 0.050746694 -0.20649347 0.057022974 0.107050434 -0.18991947 -0.14174072 -0.155652
0.18197499 0.1840565 0.013553485 0.20325743 -0.07237893 -0.21018918 0.07562457 0.07670139
0.21225901 -6.265938e-05 0.16592963 0.13271056 0.15670054 -0.2148462 0.17828389 -0.18456146
0.19410034 -0.008972153 -0.19187163 0.060208842 -0.04406917 -0.19446456 -0.07849182 0.022322923
0.16862525 -0.06656048 0.12859781 0.027112767 0.007297963 0.04142739 -0.14208634 -0.17995968
-0.06802881 -0.2017523 -0.100967854 0.009960562 -0.14259309 -0.08980596 -0.03890325 -0.024942264
-0.11951466 0.01040335 -0.030388936 0.061919853 0.009779036 -0.108116716 -0.07453966 -0.0024953932
-0.13509677 0.016949192 -0.015286595 0.08399983 0.051239625 0.16202979 -0.007137224 -0.15997766
0.096780285 -0.14632319 -0.029759303 -0.070105344 -0.08215214 -0.08010386 0.19895212 0.12394054
0.060002014 0.20329006 -0.19620281 0.0349371 0.13860227 0.14382298 -0.17230739 0.07705234
00000000: c072 d93c 7a7b adbd a02e 82bb 847c 4bbd
00000010: 140b 0a3d 3b3e 103e 3c0d 93bd 858d 313e
00000020: 3d0c 2f3e 0028 2abe 5934 2bbe ba5f 33be
00000030: b3fe f2bd 689b acbd d87f 85bc 50aa 57bd
00000040: 9c07 e0bd eedd 8cbd 3a66 a0bd a57f 593e
00000050: b456 a4bd 3cbd 1ebe 8652 b83d e0e4 4cbc
00000060: 39ba 293e e786 0a3e 39af 4b3e ae5d 22be
00000070: 4186 0e3e b30f 3a3e a5f7 dabd d3c8 4b3e
00000080: 9d32 263e c062 1b3b eec9 d53d 2006 9bbd
00000090: 865d 41be fc2a 603d b230 843d 4ae5 10be
000000a0: 220d d73d 2062 3dbe 71cd 3e3e cfb1 563e
000000b0: 0471 713d 3f1a 0bbe deca d73d 5c20 173d
000000c0: ec23 713d feb9 913d 5fcb 283e 6697 bebd
000000d0: c87b 47bd 9cd6 713d 7041 c13c a5c6 323e
000000e0: b5e4 e8bd c02d 01bc 0cb4 253d e886 6bbd
000000f0: 6723 173e 5800 c23c 73e7 4cbe 8825 c0bc
00000100: 011c c9bd 4058 ac3c 781f cebc 0fea 5bbe
00000110: 6899 21bd 48e0 a9bc 26c0 82bd 27b2 4b3e
00000120: 4c80 41bd ed6c 0e3e b4ad 5b3d 7c25 3bbe
00000130: 5463 503d 95bb 373e 0804 11be 8e4d 0fbe
00000140: 6703 593e e123 323e 7c5f f7bd 8b68 053e
00000150: 20e7 e2bc 4095 5abe 1842 853c f242 8f3d
00000160: 1001 85bd d640 9a3d f893 3dbe b3a4 193e
00000170: 4d02 3d3e ea85 f43d 7c4e 163d f208 923d
00000180: 9069 20be 1897 5dbd c052 a9bc adbf f6bd
00000190: 00c1 23be f91e 153e 1575 163e fc58 49be
000001a0: c618 8d3d ce60 b43d 419c 523e 4d44 003e
000001b0: b9d1 4b3e 8e2a 91bd 0547 1b3e 4755 343e
000001c0: 225c 51be 4bf6 31be c47e 333d aa1d f23d
000001d0: 164a dcbd 3056 c33c 00ca a4b9 5c75 603d
000001e0: 7443 eebd 0219 fa3d 2b6f 133e 82d4 19be
000001f0: 4074 093b 0079 1d3a 6262 8e3d dd88 4e3e
00000200: d208 823d b080 49bd 491e 473e ecba a8bd
00000210: 96c0 80bd 6030 723c 13d4 28be 2800 c13c
00000220: 726b 16be 605d b63c 18ed a93c 7881 f53c
00000230: f3f5 3abe ce91 52be b204 cc3d 9321 3e3e
00000240: 90bb 44be 123c a43d 3233 23be 9061 5e3c
00000250: 3b43 4e3e 1130 283e 7418 22be 9123 093e
00000260: 1a99 e73d 001c aeb9 e7c4 563e 061c b0bd
00000270: f05f 4ebd 681a e0bd e037 ff3c c4d0 6a3d
00000280: 8852 8d3c e279 f9bd 279b c7bd 4ad3 963d
00000290: 0565 42be 601b 0abd 6027 9dbb d6a6 b3bd
000002a0: f25c a13d 00a2 643c 45a6 1b3e 9084 9dbc
000002b0: cbec 0bbe f1a4 1c3e 10af f73c 14fb 7dbd
000002c0: ef1f 12be c4db 4f3d 0673 53be ec90 693d
000002d0: 423d db3d 407a 42be 7b24 11be 3d63 1fbe
000002e0: a757 3a3e 4f79 3c3e 700f 5e3c b722 503e
000002f0: 683b 94bd d53b 57be 0ee1 9a3d 9e15 9d3d
00000300: 6d5a 593e 0068 83b8 75e9 293e 47e5 073e
00000310: 1b76 203e a400 5cbe 0d90 363e aefd 3cbe
00000320: 3dc2 463e f0ff 12bc ff79 44be 8c9d 763d
00000330: e081 34bd b821 47be 52c0 a0bd 90de b63c
00000340: 19ac 2c3e dc50 88bd 25af 033e 981b de3c
00000350: c023 ef3b c4af 293d 157f 11be 5a47 38be
00000360: b052 8bbd 2898 4ebe 3cc8 cebd a031 233c
00000370: ec03 12be 30ec b7bd 0459 1fbd b853 ccbc
00000380: 1ac4 f4bd d072 2a3c 38f2 f8bc ac9f 7d3d
00000390: 4038 203c 4c6c ddbd 40a8 98bd c089 23bb
000003a0: cf56 0abe 08d9 8a3c a074 7abc 1a08 ac3d
000003b0: a4e0 513d 23eb 253e 60df e9bb 2fd1 23be
000003c0: be34 c63d bfd5 15be c8c9 f3bc 6493 8fbd
000003d0: 623f a8bd 7e0d a4bd 1bba 4b3e 8ad4 fd3d
000003e0: acc4 753d 452b 503e 64e9 48be 341a 0f3d
000003f0: c1ed 0d3e 5546 133e 5971 30be 9ecd 9d3d

transformer.layers.0.self_attn.in_proj_bias f4 [96]
0.0 0.0 0.0 0.0 0.0 0.0 0.0 0.0
0.0 0.0 0.0 0.0 0.0 0.0 0.0 0.0
0.0 0.0 0.0 0.0 0.0 0.0 0.0 0.0
0.0 0.0 0.0 0.0 0.0 0.0 0.0 0.0
0.0 0.0 0.0 0.0 0.0 0.0 0.0 0.0
0.0 0.0 0.0 0.0 0.0 0.0 0.0 0.0
0.0 0.0 0.0 0.0 0.0 0.0 0.0 0.0
0.0 0.0 0.0 0.0 0.0 0.0 0.0 0.0
-0.0055277296 0.005486408 -0.0032706608 0.006169061 -0.0010901539 -0.00878458 -0.0065759555 0.0016346548
0.005188103 -0.002934408 -0.0036997395 -0.0035066188 -0.0017949096 -0.0069136037 0.0015826629 -0.008480412
0.0037849178 0.0033070738 0.00010777707 0.0034033076 0.0053039375 0.0025042542 -0.00069733907 -0.0023523667
0.0003003567 0.0059550684 0.0036150615 0.0075847916 0.0042299284 -0.005493095 0.0027897798 -0.00018082246
00000000: 0000 0000 0000 0000 0000 0000 0000 0000
00000010: 0000 0000 0000 0000 0000 0000 0000 0000
00000020: 0000 0000 0000 0000 0000 0000 0000 0000
00000030: 0000 0000 0000 0000 0000 0000 0000 0000
00000040: 0000 0000 0000 0000 0000 0000 0000 0000
00000050: 0000 0000 0000 0000 0000 0000 0000 0000
00000060: 0000 0000 0000 0000 0000 0000 0000 0000
00000070: 0000 0000 0000 0000 0000 0000 0000 0000
00000080: 0000 0000 0000 0000 0000 0000 0000 0000
00000090: 0000 0000 0000 0000 0000 0000 0000 0000
000000a0: 0000 0000 0000 0000 0000 0000 0000 0000
000000b0: 0000 0000 0000 0000 0000 0000 0000 0000
000000c0: 0000 0000 0000 0000 0000 0000 0000 0000
000000d0: 0000 0000 0000 0000 0000 0000 0000 0000
000000e0: 0000 0000 0000 0000 0000 0000 0000 0000
000000f0: 0000 0000 0000 0000 0000 0000 0000 0000
00000100: f521 b5bb 53c7 b33b 9558 56bb d625 ca3b
00000110: 7fe3 8eba 33ed 0fbc 1d7b d7bb ea41 d63a
00000120: f600 aa3b 324f 40bb 5477 72bb 4dcf 65bb
00000130: 2c43 ebba 838b e2bb 5b71 cf3a 6df1 0abc
00000140: 620c 783b 7ebb 583b 6006 e238 070a 5f3b
00000150: a7cc ad3b 6a1e 243b a2cd 36ba 2a2a 1abb
00000160: 3279 9d39 bc22 c33b abea 6c3b d889 f83b
00000170: 369b 8a3b 6cff b3bb bdd4 363b 299b 3db9

transformer.layers.0.self_attn.out_proj.weight f4 [32, 32]
0.14752436 -0.031665564 0.14968011 0.05248075 -0.14403333 0.12734067 -0.042205743 -0.058401495
-0.14499113 -0.1667778 0.04398674 -0.0442895 0.06894463 -0.14907922 0.12871753 -0.13442384
-0.023794314 0.036913738 0.09010538 0.14382493 0.15776606 -0.14963228 0.051226158 -0.084116854
-0.011932805 -0.12856682 0.16427118 -0.12538841 0.10263016 0.058706414 0.06180513 -0.089905605
0.15524802 0.04364861 0.02083314 -0.15870579 0.08052257 -0.027201552 -0.07570158 0.15852982
0.043463435 -0.09167944 -0.0942767 -0.013881768 0.10390938 -0.050647598 -0.10490506 -0.06647127
-0.12567662 0.062236276 0.13858615 -0.16638535 0.037099607 0.084981464 0.038428444 -0.07045998
0.09918883 0.09731749 0.0701618 -0.026192812 -0.040284358 0.014366426 -0.026541589 -0.04610365
0.11834095 0.14650433 -0.017921483 -0.03818623 -0.003692354 -0.0059753684 0.039496973 0.048891548
-0.1640187 -0.06415228 0.14907217 0.070033945 -0.016412336 -0.09973413 -0.103898235 -0.14942174
-0.06561703 0.05934595 0.11001363 0.08384919 -0.15328842 -0.10486332 -0.03638883 0.17743663
0.018738206 -0.04923328 0.06990011 -0.071530186 -0.12033226 0.13323821 -0.08432276 -0.04487375
-0.18072084 0.12044963 0.13582544 0.0666516 -0.11497902 -0.17862888 -0.13804345 0.13965607
0.089522354 0.15185112 0.09141063 0.037526518 0.0005595569 -0.13855016 -0.15049936 -0.16775025
0.07687868 -0.08380076 -0.036427006 -0.10424506 -0.031337038 -0.12781979 -0.108348824 0.054288782
-0.0456373 0.10945416 -0.05176712 -0.1267338 -0.023856554 -0.08718687 -0.05349354 -0.16669995
0.096694745 -0.12652822 0.09107143 0.082892984 0.12604995 -0.13974044 0.11996511 -0.08847566
0.06691834 0.16321029 -0.0194133 -0.001239764 -0.035209544 -0.14101654 0.08733268 -0.16824709
0.10164253 0.13329495 0.16902475 -0.04333117 -0.1422144 0.041525774 0.08964919 -0.1737915
-0.04097113 -0.10951288 -0.014500608 -0.09111035 -0.08083209 -0.053134132 -0.1726731 0.14173734
0.15002069 -0.024882626 -0.021987578 -0.0741202 -0.15409105 -0.16699989 0.07331277 -0.08904913
-0.1137478 -0.010350186 -0.06516559 -0.060855027 0.003310441 -0.04148959 -0.06264866 -0.090994194
-0.13439348 0.14784336 -0.0718482 0.04814556 -0.06391065 0.011663149 0.17325254 0.07795637
-0.14866884 0.07321464 0.168622 0.050305694 0.12813392 0.17159823 -0.023022657 0.0416433
-0.12957428 -0.032645833 0.1322557 0.09127661 -0.105144285 -0.14541155 -0.11652511 -0.16549382
-0.1284153 -0.034057673 0.115806766 0.02070668 -0.13136962 -0.14635585 0.08637843 -0.13457441
-0.017404702 0.08831501 -0.081232525 -0.022792917 -0.017076159 -0.050621472 -0.08422092 -0.16408178
-0.13549563 -0.091886096 0.17787376 -0.08089721 -0.11196947 0.039204944 0.051527776 0.10021098
0.1316179 0.09389386 -0.1718532 0.019448705 0.10533217 -0.020763284 -0.110071085 0.15950699
-0.064149186 -0.110391654 -0.15379588 0.0075539276 0.08097701 0.044677876 0.038852114 -0.12823491
-0.17135383 0.0052080466 0.16378221 0.09949096 -0.09883573 -0.01749896 -0.13747764 -0.078025565
0.028935326 0.0918545 0.14720476 -0.16733277 0.11086212 -0.12036193 0.061397284 0.14297979
00000000: a010 173e c0b3 01bd be45 193e 0ef6 563d
00000010: 797d 13be 9865 023e eedf 2cbd 6836 6fbd
00000020: 8e78 14be cdc7 2abe 712b 343d e868 35bd
00000030: d832 8d3d 39a8 18be 87ce 033e 67a6 09be
00000040: 4bec c2bc dc32 173d 2b89 b83d d846 133e
00000050: 6d8d 213e 3439 19be 85d2 513d 7545 acbd
00000060: d081 43bc 05a7 03be b436 283e d265 00be
00000070: c32f d23d 2376 703d 6027 7d3d 6e20 b8bd
00000080: 56f9 1e3e e3c8 323d 43aa aa3c c583 22be
00000090: 04e9 a43d cad5 debc 6e09 9bbd a455 223e
000000a0: b706 323d 6ec2 bbbd 2414 c1bd 5b70 63bc
000000b0: 71ce d43d db73 4fbd 77d8 d6bd 1722 88bd
000000c0: 5fb1 00be 77eb 7e3d 87e9 0d3e ec60 2abe
000000d0: c2f5 173d c30a ae3d 2567 1d3d 524d 90bd
000000e0: 8323 cb3d 644e c73d fdb0 8f3d 4f92 d6bc
000000f0: 3601 25bd 2861 6b3c bf6d d9bc 2ed7 3cbd
00000100: bd5c f23d 3b05 163e 13d0 92bc 2a69 1cbd
00000110: 6cfb 71bb 06cd c3bb 94c7 213d 8142 483d
00000120: 85f4 27be 4562 83bd 60a6 183e f56d 8f3d
00000130: 2a73 86bc 6841 ccbd 99c8 d4bd 0302 19be
00000140: 3962 86bd bd14 733d d34e e13d 20b9 ab3d
00000150: a4f7 1cbe 95c2 d6bd 740c 15bd f3b1 353e
00000160: de80 993c d6a8 49bd ca27 8f3d 6b7e 92bd
00000170: c370 f6bd 996f 083e 69b1 acbd 8acd 37bd
00000180: e20e 39be 4cae f63d d315 0b3e a280 883d
00000190: 1f7a ebbd 7dea 36be 435b 0dbe 0002 0f3e
000001a0: 7f57 b73d dc7e 1b3e 7f35 bb3d 68b5 193d
000001b0: 3aaf 123a 18e0 0dbe 811c 1abe b9c6 2bbe
000001c0: 9272 9d3d bc9f abbd 7c34 15bd 6f7e d5bd
000001d0: 445b 00bd 31e3 02be fde5 ddbd ea5d 5e3d
000001e0: 2dee 3abd 8129 e03d c209 54bd 81c6 01be
000001f0: d26e c3bc 088f b2bd 0b1c 5bbd 64b3 2abe
00000200: e507 c63d 9d90 01be a883 ba3d ccc3 a93d
00000210: 3d13 013e 1e18 0fbe 45b0 f53d ba32 b5bd
00000220: 7c0c 893d 9920 273e a408 9fbc 947f a2ba
00000230: e237 10bd a466 10be 7adb b23d f748 2cbe
00000240: f529 d03d 797e 083e d314 2d3e 067c 31bd
00000250: a7a0 11be ee16 2a3d ff99 b73d 66f6 31be
00000260: 58d1 27bd 4a48 e0bd f593 6dbc 1098 babd
00000270: 4b8b a5bd 2da3 59bd 38d1 30be 9823 113e
00000280: 069f 193e a6d6 cbbc 4b1f b4bc 55cc 97bd
00000290: 0bca 1dbe 0502 2bbe 0125 963d 645f b6bd
000002a0: 9bf4 e8bd d493 29bc 8975 85bd 1f43 79bd
000002b0: fcf3 583b fdf0 29bd f14d 80bd 2a5b babd
000002c0: 729e 09be 4064 173e 2625 93bd 4734 453d
000002d0: 96e3 82bd cb16 3f3c 1d69 313e 97a7 9f3d
000002e0: a53c 18be 8ff1 953d 3fab 2c3e 580d 4e3d
000002f0: 8a35 033e 72b7 2f3e 039a bcbc 2a92 2a3d
00000300: 1faf 04be a3b7 05bd 0a6e 073e 3bef ba3d
00000310: e355 d7bd c4e6 14be b8a4 eebd 3677 29be
00000320: 4d7f 03be 0f80 0bbd 192c ed3d 0ea1 a93c
00000330: c285 06be 4fde 15be 2de7 b03d e0cd 09be
00000340: 4e94 8ebc 80de b43d 3d5d a6bd 36b8 babc
00000350: 4de3 8bbc 7658 4fbd 057c acbd 0e05 28be
00000360: 5ebf 0abe c72e bcbd 8a24 363e 70ad a5bd
00000370: 4050 e5bd 5d95 203d ca0e 533d 6a3b cd3d
00000380: d8c6 063e 6d4b c03d 49fa 2fbe e452 9f3c
00000390: 65b8 d73d c317 aabc f36c e1bd cd55 233e
000003a0: a660 83bd 0515 e2bd ab7c 1dbe f086 f73b
000003b0: 46d7 a53d 2600 373d 6523 1f3d 0350 03be
000003c0: 6177 2fbe 43a8 aa3b 86b6 273e ebc1 cb3d
000003d0: 636a cabd fb59 8fbc f0c6 0cbe decb 9fbd
000003e0: c709 ed3c 361e bc3d d8bc 163e 4859 2bbe
000003f0: ae0b e33d 5180 f6bd b87b 7b3d 4b69 123e

transformer.layers.0.self_attn.out_proj.bias f4 [32]
0.0021307913 0.0025029795 -0.0024495453 0.0040156427 0.0011510056 0.00014421661 0.006535437 0.0013193529
-0.0030231648 0.0083611095 -0.008455162 -0.0020506696 0.0015792553 -0.007268001 -0.0025929082 -0.00071458146
-0.005161587 0.002958683 0.0031600392 -0.00076991547 -0.005932774 0.0068011936 0.0061731315 0.002187858
0.001178218 0.0039562844 0.002359047 -0.0026055758 -0.0050321203 -0.007047333 -0.008584745 -0.0073063252
00000000: bfa4 0b3b 0709 243b 8d88 20bb a795 833b
00000010: 57dd 963a da38 1739 3827 d63b 23ee ac3a
00000020: 4a20 46bb 09fd 083c 8587 0abc 8764 06bb
00000030: 04ff ce3a 6928 eebb c8ed 29bb c052 3bba
00000040: 8822 a9bb 77e6 413b a918 4f3b 27d4 49ba
00000050: b767 c2bb 8cdc de3b fb47 ca3b 2b62 0f3b
00000060: 706e 9a3a b8a3 813b 3e9a 1a3b 4fc2 2abb
00000070: 7ce4 a4bb 50ed e6bb 08a7 0cbc e669 efbb

transformer.layers.0.linear1.weight f4 [2048, 32]
0.09545176 0.12007617 -0.027546627 0.16279882 0.014337541 -0.102126606 -0.10417741 0.12318721
-0.0792824 0.10793083 -0.16529489 0.009764881 -0.12245722 0.057045173 0.13966309 0.06443312
-0.05730872 -0.15918076 -0.07650759 -0.10726387 0.17159495 -0.09809067 0.07434456 0.13650724
0.068581596 -0.16262728 -0.023418918 -0.055357758 0.12020027 -0.007880288 -0.0043872963 0.16197853
0.033718288 0.08746932 -0.05294408 0.11071369 0.029541882 -0.04280901 0.031223867 -0.13192444
0.006043651 0.075849056 -0.15928423 -0.08845407 0.106345065 -0.0011783683 -0.012319678 0.0118186325
-0.07423951 0.15283185 -0.011353964 -0.069850065 0.098611295 -0.15203723 -0.036607623 0.011878191
-0.05942026 0.10144624 -0.15662597 -0.055819925 -0.067896575 0.17019182 0.076434135 -0.12659396
0.061558846 -0.008388948 0.16788682 0.09913468 -0.11058448 0.15138584 -0.029332442 -0.033700187
0.05693596 0.17107622 0.058351144 -0.16560844 -0.06041433 0.16036889 -0.061917 -0.0867987
-0.14934097 -0.09154141 -0.101043165 0.037814215 0.07562935 0.16398627 0.11017595 0.0004078075
0.08945174 0.106012106 -0.15757923 0.08935839 -0.11563685 0.14271314 -0.07162713 0.030007523
-0.0071684 0.0837007 0.023706963 -0.12058595 0.06450101 0.09994299 -0.09695309 -0.11253239
-0.12919289 -0.07767013 -0.019208 0.008045387 0.008258982 -0.04957254 0.1016311 0.009801582
-0.10535168 -0.045457494 -0.09552171 -0.055016454 -0.17229372 0.040109448 -0.13121235 0.0669325
0.12298401 -0.13706446 -0.08919296 -0.13128816 0.04940895 0.036314394 -0.09460201 0.10782238
0.08312733 -0.16313751 -0.0076484345 -0.07788878 -0.02764377 0.106811844 -0.013626631 -0.13102289
0.1303349 -0.1621416 -0.06598778 0.06778628 0.15131775 0.17714329 -0.032265607 0.0624426
-0.15279081 -0.041970875 -0.061365437 0.049254175 -0.11669807 0.0358353 0.08822542 0.1419347
-0.02902596 0.16172798 -0.16429074 -0.05311574 0.061898936 0.037779864 0.080642596 -0.11964994
0.11145869 -0.17017533 -0.11639882 -0.009865879 -0.17524491 -0.16579469 -0.15228024 0.13984074
0.04349752 -0.05799761 -0.011044997 -0.15102272 -0.17232276 -0.11842036 -0.16720277 0.119489625
-0.05587906 -0.04882174 -0.15641347 0.022378633 -0.019872053 -0.12670974 0.10844113 0.15247639
-0.13091901 0.105788216 -0.035777193 -0.002866039 0.07172408 -0.032703746 0.14764136 0.10486703
-0.10674069 -0.10140306 -0.18552029 0.05324369 -0.12760358 -0.13768175 -0.11175566 -0.18354411
-0.15376376 0.16217494 0.090078495 0.14832959 -0.079782665 -0.068976924 -0.056758586 0.003441927
-0.12278323 0.015417114 -0.102854535 0.036379073 0.152506 0.034910064 0.13945064 -0.1271977
-0.014561822 -0.11937026 -0.009596118 -0.07245197 -0.10939253 -0.18124077 -0.07343333 0.030675901
-0.031972166 -0.17120382 0.13763544 0.13563764 -0.11105681 0.020234954 0.12629895 -0.16661236
-0.14902933 0.10123822 -0.0121058505 0.05703408 -0.081708245 0.039893467 0.12578695 -0.036194894
-0.060777504 -0.1666477 -0.03460349 0.10917506 -0.1630641 -0.017168881 0.12366238 -0.043792523
-0.06993193 -0.048185736 -0.07542955 0.02429204 -0.17868301 0.067772396 -0.050144974 -0.027573735
00000000: 367c c33d 7fea f53d 77a9 e1bc bcb4 263e
00000010: 01e8 6a3c c127 d1bd f75a d5bd 9349 fc3d
00000020: d05e a2bd d70a dd3d 1043 29be e1fc 1f3c
00000030: daca fabd 33a8 693d d703 0f3e 83f5 833d
00000040: 8cbc 6abd 4800 23be 03b0 9cbd 29ad dbbd
00000050: 96b6 2f3e c3e3 c8bd f641 983d 8ec8 0b3e
00000060: 8274 8c3d c487 26be 08d9 bfbc d1be 62bd
00000070: 8f2b f63d 531c 01bc 4fc3 8fbb b3dd 253e
00000080: 301c 0a3d 1d23 b33d e4db 58bd dcbd e23d
00000090: d101 f23c 8058 2fbd 32c9 ff3c 3317 07be
000000a0: d209 c63b c056 9b3d 681b 23be 6827 b5bd
000000b0: 71cb d93d 7b73 9aba 7ad8 49bc f0a2 413c
000000c0: e20a 98bd f47f 1c3e fa05 3abc 8d0d 8fbd
000000d0: b8f4 c93d a6af 1bbe e0f1 15bd be9c 423c
000000e0: a962 73bd 0cc3 cf3d 8f62 20be 6fa3 64bd
000000f0: 5c0d 8bbd c446 2e3e 8089 9c3d d9a1 01be
00000100: 2125 7c3d cc71 09bc 86ea 2b3e 2007 cb3d
00000110: 1e7a e2bd e404 1b3e 974a f0bc 3509 0abd
00000120: ae35 693d 9b2e 2f3e 9c01 6f3d 4295 29be
00000130: 0475 77bd be37 243e ae9c 7dbd 84c3 b1bd
00000140: d7ec 18be 107a bbbd b8ef cebd 14e3 1a3d
00000150: 90e3 9a3d 04ec 273e eea3 e13d ffce d539
00000160: 7932 b73d e01c d93d 735c 21be 8801 b73d
00000170: 03d3 ecbd 6523 123e 3fb1 92bd 56d2 f53c
00000180: e6e4 eabb 466b ab3d 1b35 c23c c4f5 f6bd
00000190: 1b19 843d e9ae cc3d 578f c6bd 6277 e6bd
000001a0: 244b 04be 8411 9fbd 185a 9dbc cdd0 033c
000001b0: ae50 073c 930c 4bbd f723 d03d d196 203c
000001c0: 9fc2 d7bd a331 3abd e3a0 c3bd ef58 61bd
000001d0: c46d 30be ce49 243d 885c 06be e813 893d
000001e0: 0adf fb3d a05a 0cbe ccaa b6bd 6770 06be
000001f0: 0a61 4a3d 67be 143d b3be c1bd fbd1 dc3d
00000200: a93e aa3d 850d 27be b89f fabb 2784 9fbd
00000210: 3075 e2bc 2bc0 da3d 3c42 5fbc dd2a 06be
00000220: 8376 053e 7308 26be 9a24 87bd 88d3 8a3d
00000230: 0af3 1a3e 0d65 353e f128 04bd d0c3 7f3d
00000240: 3275 1cbe a7e9 2bbd 535a 7bbd bfbe 493d
00000250: 66ff eebd 09c8 123d 87af b43d 5457 113e
00000260: dac7 edbc 059c 253e d53b 28be e48f 59bd
00000270: bd89 7d3d 0fbf 1a3d f227 a53d 070b f5bd
00000280: 7444 e43d 7142 2ebe 8162 eebd 7fa4 21bc
00000290: 6773 33be 15c6 29be 5aef 1bbe 6932 0f3e
000002a0: 752a 323d e78e 6dbd 13f6 34bc b3a5 1abe
000002b0: 6175 30be 6086 f2bd 3437 2bbe fab6 f43d
000002c0: 71e1 64bd 4ef9 47bd da2a 20be 6553 b73c
000002d0: b7ca a2bc 33c0 01be 6216 de3d c522 1c3e
000002e0: a20f 06be 7ea7 d83d 1b8b 12bd 28d4 3bbb
000002f0: 13e4 923d 5df4 05bd 4c2f 173e 87c4 d63d
00000300: dd9a dabd 68ac cfbd 08f9 3dbe 0e16 5a3d
00000310: 83aa 02be 72fc 0cbe 27e0 e4bd fdf2 3bbe
00000320: 3f74 1dbe 3011 263e 137b b83d b6e3 173e
00000330: 1865 a3bd c643 8dbd b17b 68bd f491 613b
00000340: c675 fbbd 1098 7c3c 66a5 d2bd 3902 153d
00000350: 882a 1c3e dbfd 0e3d 26cc 0e3e 1d40 02be
00000360: b594 6ebc 6578 f4bd 0939 1dbc b361 94bd
00000370: 3109 e0bd 2e97 39be 3764 96bd 074c fb3c
00000380: 3ff5 02bd 0e50 2fbe 4ef0 0c3e 98e4 0a3e
00000390: c171 e3bd c6c3 a53c 8354 013e 6e9c 2abe
000003a0: 259b 18be fc55 cf3d 9e57 46bc 919c 693d
000003b0: a756 a7bd 5567 233d 4bce 003e 1941 14bd
000003c0: d5f1 78bd b2a5 2abe 64bc 0dbd 2d97 df3d
000003d0: 47fa 26be c1a5 8cbc b442 fd3d ca5f 33bd
000003e0: 7938 8fbd 685e 45bd cf7a 9abd 1a00 c73c
000003f0: aef8 36be 41cc 8a3d d164 4dbd 50e2 e1bc

transformer.layers.0.linear1.bias f4 [2048]
0.07267946 -0.1290972 -0.04216351 -0.027614262 0.078522846 0.1347599 0.1646988 0.016769646
-0.18079406 -0.049731903 0.02818661 0.068360716 0.14857388 -0.16667444 -0.052132256 0.115763664
0.10090251 -0.06794067 0.052889593 0.115048476 0.002328068 -0.02516871 0.013494229 -0.07267707
-0.17880824 0.09663653 0.055228803 -0.11368336 0.02631796 -0.05156059 0.15937364 -0.08343179
0.15432017 0.07769978 0.01885158 0.045785934 0.022051333 0.094376974 -0.08386537 -0.05079277
-0.08464958 0.03585325 -0.09993614 0.09810328 -0.032183804 0.17554486 0.07023848 -0.16906169
0.033782613 0.07521559 -0.1112443 0.023716602 0.062123716 -0.1594222 -0.15915498 -0.0076501737
0.061578337 -0.09541826 -0.0996609 -0.08638194 0.04318474 -0.069592245 -0.08081538 0.009758403
-0.023333712 -0.026344532 0.10691233 -0.14397311 -0.022813946 -0.010753433 0.071390465 -0.09726117
0.028326755 -0.15933317 0.1428188 0.03400785 -0.021224322 -0.14927547 0.13270703 0.11955072
0.12979539 -0.11599659 -0.0037415454 -0.108393304 -0.10748577 -0.1388468 0.10610789 -0.041189164
0.09034223 -0.038531832 -0.020922082 -0.00581273 -0.12633812 -0.15888126 0.07058138 -0.011357288
0.0018219923 0.013443804 0.017402416 0.09949463 -0.03652855 -0.042436235 -0.14861846 0.035397086
0.106580004 -0.09715686 -0.064792804 -0.0903532 0.16529955 -0.1657004 0.096908525 -0.103960015
-0.13332947 0.15112293 0.04007343 0.084858865 -0.046827193 -0.1481219 0.031840015 0.06789218
0.15783635 -0.08875858 0.17606445 0.16719742 -0.10769708 -0.06423149 0.15103249 0.062292565
-0.15625058 -0.15745437 -0.17401415 -0.09191586 0.068101875 -0.090108305 0.16810334 -0.022936733
0.1120812 -0.112121575 0.15988824 0.044308513 0.127714 0.075125046 -0.13980043 0.12048566
-0.044928256 -0.109750226 0.117153525 -0.14101128 0.052090075 -0.14775431 -0.13745536 0.08592414
0.03807546 0.16955091 0.12923831 -0.14278455 0.15197235 0.16557628 0.013599105 0.10473808
0.12537651 -0.13978828 0.10956886 0.10982643 -0.16768032 0.04674611 0.09102784 0.0507595
-0.04642215 0.028585333 0.1196789 0.06715575 -0.13214979 -0.053979095 0.17888501 0.11808948
-0.08785118 -0.13394819 0.124166325 0.1686599 -0.11378101 -0.14038241 -0.03874745 -0.026990773
0.0463284 0.0948747 -0.0551766 0.11110788 -0.12136916 0.094189644 0.034377888 -0.074635185
0.027209785 0.044712868 0.08280838 -0.065329134 0.019750813 -0.09665376 -0.10457939 -0.12605043
0.052499086 -0.016638324 0.02945833 -0.086140856 0.07050675 -0.1537701 0.028945157 -0.13680619
-0.17137414 -0.14343128 0.1682214 0.1660659 0.086357966 0.04915322 0.15631324 -0.09299631
0.123959094 0.07436733 0.124960184 0.07739531 -0.025629207 -0.14190182 -0.07012449 0.0074795773
0.09618492 -0.056229033 0.1466666 -0.0018030725 -0.14692213 -0.14292224 -0.012487566 0.11691472
-0.03949283 0.14418317 0.12070389 0.16413864 0.07748284 0.0090771755 -0.090353675 -0.101489246
-0.14245866 -0.10940636 0.08674928 0.035909012 -0.13622756 0.04076866 0.1477225 -0.12067706
0.11208709 -0.03647291 -0.15074323 0.054486416 0.019058295 -0.14523122 0.12921925 -0.1252293
00000000: f8d8 943d 0e32 04be a5b3 2cbd 4e37 e2bc
00000010: 96d0 a03d 80fe 093e cda6 283e 7f60 893c
00000020: 1422 39be aeb3 4bbd 9be7 e63c b400 8c3d
00000030: c023 183e b4ac 2abe a288 55bd 8015 ed3d
00000040: faa5 ce3d 7a24 8bbd c2a2 583d 899e eb3d
00000050: 8092 183b 9c2e cebc e616 5d3c b7d7 94bd
00000060: 8219 37be 5fe9 c53d 9937 623d d2d2 e8bd
00000070: c398 d73c 3231 53bd d832 233e 49de aabd
00000080: 1b06 1e3e 1021 9f3d a16e 9a3c 088a 3b3d
00000090: ffa4 b43c b748 c13d 9bc1 abbd 140c 50bd
000000a0: c25c adbd dcda 123d 52ab ccbd 5fea c83d
000000b0: 2ad3 03bd 08c2 333e 31d9 8f3d 821e 2dbe
000000c0: a35f 0a3d a20a 9a3d 0dd4 e3bd 5249 c23c
000000d0: 7075 7e3d 933f 23be 86f9 22be 4fae fabb
000000e0: 9139 7c3d a66a c3bd 041b ccbd 04e9 b0bd
000000f0: 7be2 303d 6186 8ebd 8982 a5bd b5e1 1f3c
00000100: 5726 bfbc 7dd0 d7bc daf4 da3d b06d 13be
00000110: 50e4 babc 2b2f 30bc 2a35 923d dd30 c7bd
00000120: 830d e83c 3c28 23be 173f 123e d14b 0b3d
00000130: a1de adbc abdb 18be 5ae4 073e 02d7 f43d
00000140: 15e9 043e 9f8f edbd b734 75bb 4ffd ddbd
00000150: 8021 dcbd db2d 0ebe 184f d93d f8b5 28bd
00000160: 5905 b93d 8ed3 1dbd c964 abbc b778 bebb
00000170: c85e 01be c5b1 22be f88c 903d eb13 3abc
00000180: ebcf ee3a 6743 5c3c 838f 8e3c d7c3 cb3d
00000190: f69e 15bd 9ed1 2dbd 702f 18be 89fc 103d
000001a0: 9e46 da3d 2dfa c6bd 17b2 84bd 190b b9bd
000001b0: 4944 293e 5ead 29be fa77 c63d fde8 d4bd
000001c0: 8587 08be f8bf 1a3e 0924 243d 7cca ad3d
000001d0: dfcd 3fbd 44ad 17be ad6a 023d 0e0b 8b3d
000001e0: da9f 213e 0fc7 b5bd 3d4a 343e cd35 2b3e
000001f0: 4990 dcbd cd8b 83bd 43a8 1a3e 7d26 7f3d
00000200: 2700 20be b83b 21be c430 32be 623e bcbd
00000210: ff78 8b3d b48a b8bd 4823 2c3e d1e5 bbbc
00000220: d48a e53d ff9f e5bd beb9 233e d87c 353d
00000230: 75c7 023e 29db 993d d827 0fbe 30c1 f63d
00000240: b106 38bd bac4 e0bd 30ee ef3d 4365 10be
00000250: 675c 553d e84c 17be 19c1 0cbe fff8 af3d
00000260: 03f5 1b3d c19e 2d3e 0c57 043e 1d36 12be
00000270: a49e 1b3e d48c 293e c8ce 5e3c eb80 d63d
00000280: b362 003e a924 0fbe a365 e03d aeec e03d
00000290: 64b4 2bbe d978 3f3d ce6c ba3d 32e9 4f3d
000002a0: 2725 3ebd ca2b ea3c 361a f53d f488 893d
000002b0: 4652 07be 2f19 5dbd a22d 373e e6d8 f13d
000002c0: 52eb b3bd b729 09be ea4a fe3d 2eb5 2c3e
000002d0: 0506 e9bd 68c0 0fbe a5b5 1ebd c11b ddbc
000002e0: d9c2 3d3d ab4d c23d dc00 62bd 878c e33d
000002f0: 6590 f8bd 80e6 c03d d4cf 0c3d 55da 98bd
00000300: 0ee7 de3c d724 373d 7197 a93d 48cb 85bd
00000310: 75cc a13c 68f2 c5bd b82d d6bd 5d13 01be
00000320: 4809 573d 184d 88bc 9852 f13c 9e6a b0bd
00000330: d865 903d e975 1dbe 651e ed3c ec16 0cbe
00000340: b47c 2fbe a6df 12be 3b42 2c3e 2e0d 2a3e
00000350: 72dc b03d e354 493d 9410 203e d974 bebd
00000360: 44de fd3d e64d 983d 20eb ff3d 6f81 9e3d
00000370: 58f4 d1bc b64e 11be 6e9d 8fbd 3e17 f53b
00000380: 99fc c43d 6a50 66bd c52f 163e 1355 ecba
00000390: c172 16be 355a 12be a698 4cbc fc70 ef3d
000003a0: 3cc3 21bd c1a4 133e 9a33 f73d f613 283e
000003b0: 53af 9e3d 6fb8 143c 590b b9bd 98d9 cfbd
000003c0: afe0 11be 7110 e0bd 9ba9 b13d 5415 133d
000003d0: 3d7f 0bbe 0afd 263d 9144 173e 8925 f7bd
000003e0: eb8d e53d 9e64 15bd 6f5c 1abe 262d 5f3d
000003f0: 2420 9c3c 7eb7 14be 0d52 043e 1c3c 00be

transformer.layers.0.linear2.weight f4 [32, 2048]
0.01875757 -0.015967699 -0.013471738 -0.021649845 0.013595464 -0.011937648 0.0008232305 0.014796557
0.012960415 -0.011587208 0.016839039 0.013333775 -0.004285193 0.004008401 0.006744867 0.010383146
0.02902812 0.0057176673 0.027371414 -0.0064851847 0.0026147584 0.0020136253 -0.013104293 -0.011940824
0.009854357 -0.0032944675 -0.008184946 -0.003055028 0.0016618911 -0.005528749 0.011865822 -0.007969838
-0.012396778 0.017725965 0.0072983643 0.00096291164 0.01699305 0.013131715 0.0065305964 0.0011237008
0.010577113 -0.017560342 -0.010300222 -0.010473767 -0.02066087 -0.010697075 -0.014272915 -0.01677827
-0.0038181997 0.0005492315 -0.020573396 0.014390671 0.019041568 -0.019941984 -0.00033465258 -0.020559803
-0.008768694 0.020217095 -0.018561695 -0.0050936732 0.008425701 -0.010547888 0.008646674 -0.018210735
-0.009332556 -0.0006748733 -0.011518845 -0.027650204 -0.007425347 0.0010588702 0.007052491 0.0022344515
-0.011586984 0.01620638 -0.008080366 0.0018037271 -0.013579928 0.01637119 -0.020417858 -0.0061088
0.019127226 0.005447997 -0.01252632 -0.026069019 -0.018361833 -0.015815668 0.012115338 0.0099945245
0.00851673 -0.016377164 -0.019743897 0.011724692 -0.02226715 0.0027596415 -0.027361041 -0.0055345357
-0.0045820097 -0.027068123 0.0039055431 0.017288517 0.015410757 0.0047888877 -0.005673551 -0.016589228
0.010149436 0.02031865 0.002961254 -0.012041613 0.017722445 -0.025639113 -0.0068105906 -0.0056501683
-0.015687462 -0.00858227 -0.019197777 -0.011605809 -0.0071619675 -0.020054206 -0.0051962784 0.024780484
0.0018963559 -0.0011502183 -0.006274873 -0.01762039 0.014280664 0.0023884024 0.003690051 -0.014221616
-0.01748864 -0.009945683 -0.018298985 0.011154812 -0.009041763 -0.0027283125 0.018637657 -0.0031554664
0.012555051 -0.018349882 -0.016619986 0.019759417 0.013303254 0.00245592 -0.013499403 -0.0085397465
-0.012594769 -0.012546189 -0.012855187 0.02233808 -0.017584331 0.009095688 0.00013381933 -0.0150328465
0.0023738877 -0.023443894 -0.024000823 -0.0055835643 0.011933511 0.0054237745 -0.016426379 0.015701303
-0.0021415225 -0.02386079 -0.019852055 0.0107026575 -0.021509355 0.00936396 -0.011057619 -0.024235256
-0.008407034 -0.0033181645 -0.013430244 0.0037212258 0.007003246 -0.010757374 0.0044241 -0.0015186332
-0.00318275 -0.029492648 0.016068257 -0.019016007 -0.0004956315 -0.0008343643 -0.023377182 -0.018575544
0.01896482 0.009364054 -0.008545626 0.02049545 -0.00794147 -0.0006871305 -0.016002696 -0.0047918586
-0.015632644 0.015660828 -0.00925145 0.001490396 0.01532792 -0.019512968 0.0032053778 -0.015309531
-0.006943955 -0.012058094 -0.0149790095 -0.0067085414 0.00694957 -0.004579887 0.02726454 -0.010184193
-0.020586459 0.01331933 -0.021277662 -0.010576529 -0.0014286975 0.003980023 -0.009409205 0.009689709
-0.0035265172 -0.00860232 0.010286346 0.007374379 -0.009766929 0.0026306363 0.012614292 0.0135913
-0.0027778416 -0.0010371578 0.016881833 0.006541774 -0.025494464 0.012782243 -0.0051426645 -0.017428499
0.014755241 0.0070630265 -0.0051066675 -0.017280871 -0.011499945 0.014380481 0.0062297024 -0.004271262
-0.0026339937 0.007951464 -0.005970128 0.009580408 -0.0065248157 0.017090386 -0.020076994 -0.0053376625
-0.011055882 0.0014178908 0.010505313 0.002380687 0.019076012 -0.011586142 0.018072281 0.008210878
00000000: 7aa9 993c b1ce 82bc 91b8 5cbc 045b b1bc
00000010: 82bf 5e3c 2096 43bc 10ce 573a 426d 723c
00000020: ec57 543c 46d8 3dbc 06f2 893c e875 5a3c
00000030: ce6a 8cbb e858 833b 0c04 dd3b 121e 2a3c
00000040: 61cc ed3c 455b bb3b 043a e03c ac81 d4bb
00000050: 5e5c 2b3b 07f7 033b 63b3 56bc 72a3 43bc
00000060: 2b74 213c fee7 57bb 271a 06bc dd36 48bb
00000070: d0d3 d93a 822a b5bb dd68 423c ec93 02bc
00000080: db1b 4bbc 0b36 913c 1e27 ef3b e86b 7c3a
00000090: 0235 8b3c 6826 573c 9dfe d53b 2449 933a
000000a0: a14b 2d3c b5da 8fbc 43c2 28bc 2a9a 2bbc
000000b0: fc40 a9bc c942 2fbc f2d8 69bc 9572 89bc
000000c0: c33a 7abb 4dfa 0f3a 8a89 a8bc d9c6 6b3c
000000d0: 10fd 9b3c 5f5d a3bc 4f74 afb9 086d a8bc
000000e0: 91aa 0fbc 529e a53c b20e 98bc d4e8 a6bb
000000f0: f40b 0a3c 0dd1 2cbc c8aa 0d3c ae2e 95bc
00000100: 94e7 18bc fbe9 30ba 8ab9 3cbc ae82 e2bc
00000110: 5350 f3bb cac9 8a3a 9518 e73b e06f 123b
00000120: 55d7 3dbc 3ec3 843c 8363 04bc 0a6b ec3a
00000130: 597e 5ebc e01c 863c 5a43 a7bc 542c c8bb
00000140: b3b0 9c3c 1c85 b23b 323b 4dbc b28e d5bc
00000150: 8e6b 96bc dc8f 81bc 697f 463c 13c0 233c
00000160: c189 0b3c 6729 86bc f4bd a1bc ec18 403c
00000170: 9969 b6bc 1adb 343b 4324 e0bc 0d5b b5bb
00000180: af24 96bb f8bd ddbc 24f4 7f3b a6a0 8d3c
00000190: 667d 7c3c 1aec 9c3b 32e9 b9bb 22e6 87bc
000001a0: d249 263c 4c73 a63c 9911 423b 304a 45bc
000001b0: a92e 913c 1e09 d2bc 602b dfbb 0c25 b9bb
000001c0: fe82 80bc a69c 0cbc a844 9dbc 4b26 3ebc
000001d0: f0ae eabb b848 a4bc 8b45 aabb 7100 cb3c
000001e0: 258f f83a ecc2 96ba 739d cdbb a358 90bc
000001f0: 72f9 693c be86 1c3b c8d4 713b c801 69bc
00000200: 5644 8fbc 38f3 22bc c1e7 95bc acc2 363c
00000210: e723 14bc 7dcd 32bb 00ae 983c f1cb 4ebb
00000220: b3b3 4d3c 7e52 96bc a326 88bc 80de a13c
00000230: e4f5 593c 80f3 203b 9a2c 5dbc 4bea 0bbc
00000240: 4a5a 4ebc 888e 4dbc 909e 52bc 59fe b63c
00000250: 040d 90bc 1506 153c da51 0c39 544c 76bc
00000260: 3a93 1b3b 690d c0bc 609d c4bc 55f6 b6bb
00000270: c684 433c ebb9 b13b 9d90 86bc 05a0 803c
00000280: c958 0cbb b477 c3bc c7a0 a2bc 335a 2f3c
00000290: 6334 b0bc 4b6b 193c 042b 35bc 0489 c6bc
000002a0: a8bd 09bc 9075 59bb 870a 5cbc cfdf 733b
000002b0: 7c7b e53b b23f 30bc 0af8 903b e00c c7ba
000002c0: af95 50bb 919a f1bc 94a1 833c 75c7 9bbc
000002d0: 44ed 01ba 3eb9 5aba 8181 bfbc bd2b 98bc
000002e0: 1c5c 9b3c b06b 193c f402 0cbc 13e6 a73c
000002f0: f01c 02bc 8c20 34ba 1618 83bc 0605 9dbb
00000300: 0810 80bc 234b 803c 6593 17bc 6459 c33a
00000310: f521 7b3c a9d9 9fbc 5111 523b d4d4 7abc
00000320: 1e8a e3bb 508f 45bc 856a 75bc 53d3 dbbb
00000330: 38b9 e33b e012 96bb e259 df3c 9adb 26bc
00000340: efa4 a8bc 5239 5a3c 7e4e aebc 2e49 2dbc
00000350: 2243 bbba da6a 823b 1129 1abc 96c1 1e3c
00000360: 241d 67bb bff0 0cbc 1088 283c c6a4 f13b
00000370: 7805 20bc c166 2c3b 2dac 4e3c 0bae 5e3c
00000380: 730c 36bb 3ef1 87ba c54b 8a3c 615c d63b
00000390: c4d9 d0bc 9d6c 513c cc83 a8bb 36c6 8ebc
000003a0: f7bf 713c f670 e73b d555 a7bb 9d90 8dbc
000003b0: 446a 3cbc 1c9c 6b3c 8822 cc3b f1f5 8bbb
000003c0: 159f 2cbb db46 023c 10a1 c3bb 25f7 1c3c
000003d0: 1fce d5bb 2301 8c3c 8278 a4bc 8fe7 aebb
000003e0: bb23 35bc 85d8 b93a 7a1e 2c3c 4d05 1c3b
000003f0: 4c45 9c3c cdd3 3dbc 520c 943c eb86 063c

transformer.layers.0.linear2.bias f4 [32]
0.019765602 -0.0049066762 0.007488543 0.008653384 0.021129854 0.018014338 0.0056777406 -0.008727214
0.00087726064 0.017994588 -0.004569152 0.02230814 0.01730566 0.016119441 0.0039216247 -0.008557682
-0.022880781 0.01887099 0.009293209 0.0052767615 -0.022130484 0.0019822365 -0.01636631 -0.00431048
-0.016041197 0.003368587 -0.0111142425 -0.017612932 0.01824725 -0.008837756 -0.013075011 0.00665972
00000000: 79eb a13c 2fc8 a0bb 7462 f53b ecc6 0d3c
00000010: 8418 ad3c ce92 933c 570c ba3b 97fc 0ebc
00000020: f7f7 653a 6369 933c d3b8 95bb 8fbf b63c
00000030: 99c4 8d3c eb0c 843c f980 803b 8535 0cbc
00000040: 7a70 bbbc 5697 9a3c 8b42 183c afe8 ac3b
00000050: fd4a b5bc 69e8 013b a412 86bc ed3e 8dbb
00000060: d468 83bc 83c3 5c3b 8318 36bc ff48 90bc
00000070: 427b 953c 3ccc 10bc 9238 56bc c839 da3b

transformer.layers.0.norm1.weight f4 [32]
1.0072458 0.99447316 0.9953583 1.0013539 1.0016611 1.0093861 1.0054896 1.007459
0.9931526 0.99977314 1.000487 0.99523485 0.99651253 0.9947879 0.99925804 0.9946599
1.0054634 1.0000631 0.99488616 1.0036092 1.0011029 1.0007826 0.9933878 0.9941404
0.9975239 1.0102698 0.99602526 1.0020661 1.0048647 1.0036756 1.0036726 0.99442273
00000000: 6eed 803f cb95 7e3f cdcf 7e3f 5d2c 803f
00000010: 6e36 803f 9033 813f e2b3 803f 6bf4 803f
00000020: 403f 7e3f 22f1 7f3f f50f 803f b6c7 7e3f
00000030: 721b 7f3f 6baa 7e3f 60cf 7f3f 08a2 7e3f
00000040: 06b3 803f 1102 803f dcb0 7e3f 4476 803f
00000050: 2424 803f a519 803f aa4e 7e3f fc7f 7e3f
00000060: ba5d 7f3f 8550 813f 83fb 7e3f b443 803f
00000070: 689f 803f 7178 803f 5878 803f 7d92 7e3f

transformer.layers.0.norm1.bias f4 [32]
-0.0049962727 -0.001466353 -0.0053049983 -0.0023179404 0.003606712 -0.0038851902 -0.0043905643 0.0033787591
2.1821892e-05 0.0033586218 0.0023606422 -0.0023575237 0.005890308 -0.006073491 -0.004814947 -0.0050936285
-0.0013396345 0.0035118544 0.004305382 -0.0026325353 -0.0024024865 0.004173735 0.0032928286 0.002130227
0.004203217 -0.0013502571 0.00407775 -0.0037441445 0.0036070228 -0.0029026542 -0.002710722 3.949953e-05
00000000: c6b7 a3bb a432 c0ba 8dd5 adbb 96e8 17bb
00000010: 965e 6c3b ad9e 7ebb b9de 8fbb 2c6e 5d3b
00000020: 280e b737 531c 5c3b 01b5 1a3b af80 1abb
00000030: 7c03 c13b 2304 c7bb b4c6 9dbb 74e8 a6bb
00000040: ad96 afba 2427 663b 2914 8d3b 9d86 2cbb
00000050: 0973 1dbb d4c3 883b 7fcc 573b 479b 0b3b
00000060: 24bb 893b 1cfb b0ba a59e 853b 5260 75bb
00000070: cd63 6c3b 753a 3ebb 5ea6 31bb 4cac 2538

transformer.layers.0.norm2.weight f4 [32]
1.0090702 0.99763495 1.007896 1.0038832 1.0008401 1.0091474 1.0078671 1.0071192
0.99553514 1.0068486 1.0059261 1.0003166 1.0001528 1.0064046 0.99943876 0.99478924
1.0090324 1.0037425 0.9955333 1.0058173 1.0059593 1.0078155 1.0005981 0.99664915
1.0024167 1.0088693 0.995997 1.0035393 1.0072427 1.0088437 1.0068554 0.99560595
00000000: 3629 813f 0165 7f3f bc02 813f 3f7f 803f
00000010: 871b 803f be2b 813f ca01 813f 48e9 803f
00000020: 64db 7e3f 6ae0 803f 30c2 803f 600a 803f
00000030: 0205 803f ded1 803f 38db 7f3f 82aa 7e3f
00000040: f927 813f a27a 803f 45db 7e3f 9fbe 803f
00000050: 46c3 803f 1900 813f 9913 803f 6624 7f3f
00000060: 314f 803f a122 813f a9f9 7e3f fa73 803f
00000070: 54ed 803f ca21 813f a3e0 803f 08e0 7e3f

transformer.layers.0.norm2.bias f4 [32]
0.0020759304 0.0009680864 0.0039392146 -0.0035392244 0.004328789 -0.0036415972 0.0035956504 0.0037754264
0.0014470305 0.0059165047 -0.0048233676 0.0059520467 0.0023965547 -0.0067643304 -0.0040542632 -0.005068457
-0.0060585504 0.0046867607 0.005918569 -0.004250087 0.0018501938 0.005524672 0.0069785686 0.002731987
0.0036223503 0.005795809 0.0030755664 -0.0043140897 0.0027531302 0.0003444294 -0.002734381 0.006496142
00000000: 550c 083b 2ec7 7d3a 8714 813b 55f2 67bb
00000010: 84d8 8d3b dda7 6ebb 01a5 6b3b 256d 773b
00000020: 49aa bd3a 3ddf c13b 570d 9ebb 6309 c33b
00000030: 840f 1d3b 51a7 ddbb a0d9 84bb 4d15 a6bb
00000040: ce86 c6bb 6693 993b 8ef0 c13b 5044 8bbb
00000050: 3482 f23a 4f08 b53b 7aac e43b 230b 333b
00000060: f464 6d3b c5ea bd3b 718f 493b 355d 8dbb
00000070: dc6d 343b 8894 b439 4d33 33bb 97dd d43b

fc.weight f4 [3, 32]
-0.110603765 -0.03518822 0.034345508 -0.049999658 0.14579128 -0.14428757 -0.15370618 0.0192325
0.152643 0.057055812 0.03562266 -0.016916908 0.10103162 0.102650024 -0.08350817 -0.123883
-0.08943735 0.16062656 -0.095887825 -0.13491292 0.009220448 0.016441653 -0.13016215 0.03816942
0.1027529 0.094007716 0.046292745 -0.151803 0.07262109 0.0021222464 0.15607435 -0.14930432
0.089311935 0.1433451 -0.03643037 0.03807971 0.05317963 0.029583503 0.08286282 -0.0797577
-0.128287 0.13971467 0.022413371 0.03047078 -0.15362388 -0.06571221 0.016069468 -0.14354755
-0.16088383 0.14895192 -0.07816929 -0.08474688 -0.1470925 0.15896617 0.120121434 -0.16467
-0.0916979 0.15429181 -0.14907177 -0.031932604 -0.069251895 -0.11739463 -0.019044861 -0.11230173
-0.061968848 0.027289549 -0.08235885 0.037042554 -0.11422235 0.049151875 -0.1139912 -0.10226163
0.0078054834 0.02148459 0.07875378 -0.04707242 -0.047746185 0.09901468 0.07590395 -0.065343164
-0.0623254 -0.019587146 -0.095416255 -0.018456632 -0.08044718 -0.10033091 -0.10896183 -0.10974357
-0.10209162 0.044907186 -0.101966344 0.17195717 -0.020322261 -0.04596377 0.120307766 -0.1489801
00000000: 3a84 e2bd 8621 10bd e0ad 0c3d 71cc 4cbd
00000010: 4f4a 153e 1fc0 13be 2765 1dbe 7a8d 9d3c
00000020: 724e 1c3e 5bb3 693d 11e9 113d 5495 8abc
00000030: aae9 ce3d 2d3a d23d 5506 abbd 5fb6 fdbd
00000040: ee2a b7bd 4a7b 243e d660 c4bd 9d26 0abe
00000050: 5d11 173c a5b0 863c 3a49 05be 8a57 1c3d
00000060: 1d70 d23d 1e87 c03d 769d 3d3d 3f72 1bbe
00000070: 5eba 943d 6315 0b3b f4d1 1f3e 3be3 18be
00000080: 2de9 b63d 0fc9 123e 0338 15bd 78f9 1b3d
00000090: e2d2 593d 1a59 f23c fbb3 a93d 0158 a3bd
000000a0: ab5d 03be 5d11 0f3e 3f9c b73c db9d f93c
000000b0: 944f 1dbe 2094 86bd 1ea4 833c 21fe 12be
000000c0: bbbe 24be da86 183e 3917 a0bd c68f adbd
000000d0: 6b9f 16be 07c8 223e 3a02 f63d 419f 28be
000000e0: 1ccc bbbd acfe 1d3e 45a6 18be c3cb 02bd
000000f0: f0d3 8dbd 996c f0bd f803 9cbc 73fe e5bd
00000100: 0cd3 7dbd 558e df3c c2ab a8bd efb9 173d
00000110: 68ed e9bd 7a53 493d 3874 e9bd 8c6e d1bd
00000120: 24c5 ff3b 7300 b03c a949 a13d 03cf 40bd
00000130: 8191 43bd 35c8 ca3d 8873 9b3d a3d2 85bd
00000140: eb48 7fbd 3975 a0bc 9969 c3bd 5d32 97bc
00000150: 7ec1 a4bd 4b7a cdbd 6127 dfbd 3dc1 e0bd
00000160: 6915 d1bd 99f0 373d bbd3 d0bd 8a15 303e
00000170: df7a a6bc 8244 3cbd eb63 f63d 3d8e 18be

fc.bias f4 [3]
0.13871667 -0.045812238 -0.08762517
00000000: be0b 0e3e 9da5 3bbd d374 b3bd
